convvae.pth (torch, 831346 bytes, 51 tensors)

encoder.0.weight f4 [16, 1, 3]
00000000: 916c e73c 0186 a63d 6c47 06be 8373 54be
00000010: ea59 eabd c13c bf3e 8092 90be 42b7 00bf
00000020: 92dd 103f 43d1 cbbe b160 0fbf fca8 e3be
00000030: bfd1 083f fc9a de3e 942c 2fbd f40c 883e
00000040: 5792 f7be b6df 74bd a5d2 fa3e c75b 06bf
00000050: 0c5b cd3e fa4b 46be 95cc 1a3e 3a9e 073e
00000060: 50a1 98be e17b a43e 00be 7fbe fbd1 123f
00000070: 7f8b a53e 523b 993a 83f6 cfbe 299b b4be
00000080: 935a cbbe 8cb5 05bf 10ba f2be 7c35 373d
00000090: 2343 f93e f55e c93e b912 febe 933f d5be
000000a0: 3320 63be 6310 a2bd bc3c 0d3f 6e64 103e
000000b0: 1bcb cd3e ac86 c83d 00e9 25be 8099 c23c
0.02825001 0.08131028 -0.13113183 -0.20747189 -0.11442931 0.3735104 -0.2823677 -0.5027963
0.5658809 -0.39808092 -0.56006914 -0.44464862 0.5344505 0.4347762 -0.042767122 0.26572382
-0.48353836 -0.05978366 0.48988834 -0.5248379 0.40108526 -0.1936492 0.15117104 0.13243952
-0.29810572 0.32125762 -0.24974823 0.57351655 0.3233299 0.0011690652 -0.4061776 -0.35274628
-0.3971754 -0.52230144 -0.4740758 0.04472874 0.48684034 0.3933026 -0.4962366 -0.41650066
-0.22180252 -0.07913282 0.551708 0.14100811 0.4019402 0.097913116 -0.16202164 0.023754835

encoder.0.bias f4 [16]
00000000: 718b 30be 52e5 03bd 8651 00bf db3a 2b3e
00000010: eab8 4d3e d9cd d53c 95c2 3dbe 7942 f73e
00000020: 4329 113f 6b1e f5be db99 733e 9947 d4be
00000030: b7a3 acbc d3e3 d6be 74f5 d53e 8d97 8a3e
-0.17240693 -0.03220112 -0.50124395 0.1672167 0.2009007 0.026099132 -0.18531258 0.48292902
0.56703585 -0.4787477 0.2378916 -0.41460875 -0.02107416 -0.4197069 0.41788828 0.2706875

encoder.1.weight f4 [16]
00000000: 4a9a 813f 94fc 7f3f b090 803f e5ff 7d3f
00000010: be77 803f 4627 7d3f 001c 803f 0f1c 7f3f
00000020: a382 7d3f 4d79 803f f86f 813f fad4 7f3f
00000030: 6138 7f3f abe8 7e3f 6dad 803f eb38 7f3f
1.012521 0.9999478 1.0044155 0.9921859 1.0036542 0.9888805 1.0008545 0.9965219
0.9902746 1.0037018 1.0112295 0.9993435 0.996954 0.99573773 1.0052925 0.99696225

encoder.1.bias f4 [16]
00000000: dcd3 5a3c a6cf c0bb 48c4 30bc 0885 32bc
00000010: 3cec 3bbc 6ba6 adbb 3c27 023c c66a 4b3b
00000020: c6f3 e73b f648 9e3c 4bb2 f33b 71c6 ff3b
00000030: be73 973b 38ca f93a 6aea a83b 7a93 4e3c
0.013356175 -0.0058841286 -0.010788985 -0.010895975 -0.011469897 -0.0052993796 0.0079439245 0.0031038984
0.0070786206 0.0193219 0.0074370257 0.0078056385 0.004621952 0.0019057458 0.0051548975 0.012608403

encoder.1.running_mean f4 [16]
00000000: 68fe 4ebe 9ba8 1f3d 10f8 55bf 5504 f0bf
00000010: bfc7 c63f d911 c7be 50ab a63e 8e39 1e3f
00000020: 8454 803e c55f 543f 269b b8bf 7517 e7bf
00000030: 0bc8 0c3f 9a40 bbbf c833 0040 521a 523e
-0.20214236 0.038979154 -0.8358164 -1.8751322 1.5529708 -0.38880804 0.32552576 0.6180657
0.2506448 0.8295863 -1.4422348 -1.8054034 0.5499274 -1.462909 2.0031605 0.20517853

encoder.1.running_var f4 [16]
00000000: a6c9 9d3c e1d2 4a3e b10a 233f e139 8840
00000010: d4bc 0340 37dc b43e 7e63 f83e acfe b43d
00000020: bd49 3c3e 1839 f43f 836b 3640 c3f5 0a40
00000030: ae0b 6a3f 953a 943f 343d 2240 ab51 ba3c
0.019261193 0.19807006 0.6368819 4.2570653 2.0584002 0.3532426 0.48513407 0.08837637
0.18387504 1.9079924 2.850312 2.17125 0.9142407 1.1580378 2.5349855 0.02274402

encoder.3.weight f4 [32, 16, 3]
00000000: 7cf8 193c 85d0 7e3d 50b8 b9bc 1295 c2ba
00000010: 6b85 9fbc 25e4 9ebd 1de1 ef3d 8755 93bc
00000020: ed03 babc 1466 d5bd a096 093e 7407 c8bd
00000030: 3a81 0f3e 2980 d63d 0d09 39bd 1287 1cbd
00000040: c3e9 d13d 8a36 8b3d fea8 f23d 575a bbbc
00000050: e94e efbd a7c6 c73c 17b5 863d 4e7c 093e
00000060: afd1 91bd d814 a2bd 88a7 a3bd 311f 6cbd
00000070: 0364 ecbc e443 81bd 6c2c bbbc e69f c53d
00000080: e55e 0fbd 4d13 f53a 395c 40bd 6f69 cf3d
00000090: 37b6 e8bd fbf1 e8bb 37cd 063e d2dc 603d
000000a0: bf87 dd3c 929f 393d c479 f93d 4196 ec3d
000000b0: f07b 8a3c cfbe a4bd 1fee c73d 9fb6 06be
000000c0: e503 10bd e3dc 413d 796a 2fbd 4e4f ff3d
000000d0: acc6 fd3d 9d34 ee3d bbc0 87bd aa2d f13b
000000e0: cc08 523b 56ad e03d 44cc 9ebd 31d2 11bd
000000f0: 852d c43d a6c4 47bd 8ad5 073d ade9 f43d
00000100: 337c 07be 3231 013d 4786 af3d 8950 a93d
00000110: 7b3a 6f3d 90a6 5dbd 524e 023e 36ad f43d
00000120: 38c6 123e e074 d6bb 9744 f5bd 2731 9bbc
00000130: a8cd c7bd fdc2 13be 5a7a 393b b28c 09be
00000140: 5c36 0abe fcd3 7f3d b9ae f0bd a84f d4bd
00000150: 1cc4 823d 0605 133e fdc4 c2bc b0ca b83d
00000160: 721d eb3c 6f00 0f3e 6075 d53d 7f55 f8bd
00000170: 1912 a2bd 00ad 353d b10f 0bbe 0f9b f4bc
00000180: 748c 03be c325 f13d 5fc3 a9bc 246b 2f3d
00000190: 9178 ff3c 92b7 4f3d 684c dc3d e6aa 7f3c
000001a0: 6b59 883d 3173 db3d a1ce e93d 89e8 cbba
000001b0: 366b 84bd 8c69 dabd 7fdc 9fbd 1fb6 c43c
000001c0: 7a67 88bd 131f 5abd b64d 06be 746c a23d
000001d0: 418b 7d3d 5eda 673d 44fd c9bd 5cbe 74bc
000001e0: 5fbb 0c3e 58fd 113c 0ff5 bc3d 0411 f3bc
000001f0: f1a7 b03d 3f05 09be 431c 6abd a1f8 013d
00000200: 26d8 143d da0a d73d 42a1 053e 6c74 a1bd
00000210: 2f00 643d 039e b83d cd21 a63d 3f66 d93d
00000220: feb7 00bc 23b5 f43d eaa3 b43d d096 12be
00000230: 498f b9bd 96c4 d53d 3fa0 723d 271a d63d
00000240: c708 073b d822 2dbd 45bd edbc 563c 1dbd
00000250: 8966 a93d 6cc0 88bd 7e7e cbbd d5eb 0dbd
00000260: b341 75ba a995 bd3d d4ef 033d fdbe 33bd
00000270: 7631 803d 99e2 f0bd 74b7 9bbc dbf5 f73d
00000280: dba3 98bc ffb0 8dbd 0fa2 26bd 06be cb3d
00000290: 7f47 e0bd 5d81 9a3d d7d4 eabd 42db edbd
000002a0: 35e3 aebc bd31 de3d 8ebe 133e fdc0 06bd
000002b0: a0c4 80bd 74d0 0b3e 8f7a cebd 3e6f 8ebd
000002c0: bfe2 a23d 1242 09be 4d1f ddbc 81ef 2c3d
000002d0: 0a95 0abe a6a1 92bc 2fcc 0d3e 9bca 04be
000002e0: f2c9 be3c f9d9 3abd f0da f8bd 66ee 673d
000002f0: 95ba 09bd 29ec 583d a124 543d 3381 a83d
00000300: 03ca fcbd 8843 eabd 6046 10be a999 f03d
00000310: 53a1 fd3d 67ab 363d f15d f1bd 7371 5bbd
00000320: 4e4f d0bd 22cb 713d b831 68bd 3d0f 273d
00000330: 53a4 b13d 416c aa3d 58fd cdbb 478f 3b3d
00000340: bbba 44bd 5dc6 e93d 7ff3 8b3d b3ec e43d
00000350: 4df5 3d3c 18d3 a7bd 48e7 03be 3970 24bd
00000360: de19 13be bbc1 f83d 37fb 93bd 9ed3 b63c
00000370: 710c 383c 4ac0 4b3c 695e 17be 41f3 c3bd
00000380: ea96 4a3d fbe4 1abe a7c2 07be 1ec9 91bd
00000390: 6b66 d63d 2e09 093e 3928 00bc 94b5 8b3d
000003a0: aad2 51bc d9e7 6e3d 5de1 d23d 6fa9 6abd
000003b0: 7675 e73d a033 67bd 9998 49bd 7469 ab3d
000003c0: 860c 243d 528d 9b3d 1b71 223c 74a4 05be
000003d0: 5c3e 8f3d 6d92 81bd 81ef f7bd 1fe5 76bd
000003e0: 5490 83bd ae8e 1bbb 94c3 1b3c 855a 6bbc
000003f0: a1b1 febd 3035 843c 6adc 983b cbf2 9a3d
0.009397622 0.06221058 -0.022670895 -0.0014845452 -0.019472798 -0.07758359 0.11712859 -0.017985119
-0.02270695 -0.104198605 0.13436365 -0.097670466 0.1401414 0.10473663 -0.045174647 -0.03821475
0.10249665 0.06797512 0.11848639 -0.022870226 -0.11684973 0.024386717 0.06577509 0.13426325
-0.07120072 -0.07914132 -0.079909384 -0.057646934 -0.028856283 -0.06311777 -0.02284833 0.09649639
-0.035002608 0.0018697769 -0.04696295 0.10127532 -0.1136288 -0.0071089244 0.13164221 0.05489809
0.027042268 0.045318194 0.12181428 0.11552096 0.016904801 -0.08044206 0.09762215 -0.13155602
-0.035159964 0.047329795 -0.04282615 0.12466298 0.12391409 0.11631129 -0.06628557 0.00736018
0.00320487 0.10970561 -0.07753804 -0.035600845 0.09578995 -0.048771523 0.03316263 0.119586326
-0.13230972 0.031541057 0.08570533 0.08267314 0.05840538 -0.054113925 0.1272519 0.119471
0.14333427 -0.0065446943 -0.11975973 -0.018944336 -0.09756023 -0.14429851 0.0028301687 -0.13432577
-0.13497299 0.062458023 -0.11752076 -0.10366756 0.06385061 0.14357385 -0.023775572 0.090230346
0.028700564 0.13965009 0.10422778 -0.12125682 -0.07913608 0.04435444 -0.13580205 -0.029859094
-0.12846547 0.117747806 -0.020723043 0.042826787 0.03118542 0.050712176 0.10756761 0.01560471
0.0665768 0.107153304 0.114163645 -0.0015556972 -0.06465761 -0.10664663 -0.07805728 0.024012623
-0.066603616 -0.05325229 -0.13115582 0.07930842 0.06190038 0.056604736 -0.0986276 -0.014937963
0.13743351 0.0089104995 0.09226429 -0.0296712 0.08625782 -0.13380907 -0.05715586 0.03173125
0.036338948 0.10500117 0.13049796 -0.07883534 0.055664238 0.09014513 0.08111916 0.10615205
-0.007856367 0.119486116 0.088203266 -0.14315343 -0.090605326 0.104378864 0.059234854 0.10454207
0.0020604597 -0.042269558 -0.029020915 -0.03838762 0.0827151 -0.066773266 -0.09936236 -0.034648735
-0.0009355798 0.09257061 0.03221114 -0.043883312 0.06259434 -0.1176197 -0.019008376 0.1210744
-0.01863282 -0.06918525 -0.040681895 0.099483535 -0.10951137 0.07544205 -0.11466377 -0.11614086
-0.021348575 0.108493306 0.1442816 -0.03289889 -0.06287503 0.13653737 -0.1008197 -0.069548115
0.07953405 -0.1340411 -0.026992464 0.042220596 -0.13533416 -0.017899346 0.13847421 -0.12967913
0.023289654 -0.04561803 -0.12151134 0.05662384 -0.033625204 0.052959595 0.051792745 0.08227768
-0.12343218 -0.11438662 -0.14089346 0.11748058 0.12384286 0.044597056 -0.11785496 -0.05357499
-0.10171376 0.059031613 -0.05668804 0.040786017 0.086739205 0.08321429 -0.0062863044 0.045790937
-0.048029643 0.11414788 0.068335526 0.11177959 0.011594129 -0.0819456 -0.12881196 -0.040146086
-0.14365336 0.12146326 -0.0722565 0.022317704 0.011233435 0.012435982 -0.14782108 -0.095678814
0.04946033 -0.15126412 -0.13257848 -0.07118438 0.104687534 0.13382408 -0.00782209 0.06821743
-0.012806574 0.058326576 0.10296891 -0.05729049 0.11301701 -0.056445718 -0.049217794 0.08369723
0.040051006 0.07595314 0.009914662 -0.13051015 0.06994316 -0.063267566 -0.121062286 -0.0602771
-0.06424013 -0.0023736167 0.009507079 -0.014364843 -0.12436224 0.016138643 0.0046649473 0.0756584

encoder.3.bias f4 [32]
00000000: eacc d2bd 7377 cc3d 9b1b c83d 95fc 9fbd
00000010: cc11 1abd 6e0c 44bd 9f29 e33d edb3 acbd
00000020: 48cf c5bd 6d72 3dbd 147c d8bc 355b 1ebc
00000030: 8858 453c c3c0 e73d ef9d 993c b89c b2bd
00000040: 41c5 2ebd 0303 fd3a 63d4 9fbd 63a7 4b3d
00000050: 59c1 973d 03fa ddbb 9475 b6bd 07b3 8dbd
00000060: f14f 01be e40b ae3d 625b 8d3c 45f6 97bd
00000070: b56a 08be e3ba b93d ed49 af3c 1ffb bf3d
-0.102929905 0.09983721 0.0977089 -0.07811848 -0.03761463 -0.047863416 0.11091923 -0.084327556
-0.096586764 -0.046251703 -0.026426353 -0.0096653 0.012045033 0.11316063 0.018752066 -0.08721298
-0.042668585 0.0019303266 -0.078041814 0.04972018 0.07409925 -0.0067741885 -0.08909145 -0.069189124
-0.12628151 0.08498362 0.017255489 -0.07420019 -0.13321956 0.09068849 0.021397555 0.093740694

encoder.4.weight f4 [32]
00000000: 462a 7f3f ba70 7f3f 6ebd 803f 8633 803f
00000010: 1697 803f 68ad 7f3f 4363 803f 3ef3 7f3f
00000020: 9ad0 7f3f dd1e 803f 33bf 7f3f 764f 7e3f
00000030: 24f2 7f3f f782 803f c41f 803f ffc6 803f
00000040: c3b0 803f 8e08 7e3f 1d70 803f f788 7e3f
00000050: b1f4 7f3f 6c3f 803f 5761 803f 833e 813f
00000060: 9abc 7e3f 87d3 7f3f aa3e 803f 012c 803f
00000070: 42ab 803f 8768 7f3f a440 803f 5ffe 7b3f
0.9967388 0.9978138 1.0057809 1.0015724 1.0046108 0.9987397 1.0030292 0.99980533
0.99927676 1.0009419 0.9990112 0.9934 0.9997885 1.0039967 1.0009694 1.0060729
1.0053943 0.99231803 1.0034214 0.9942774 0.99982744 1.0019355 1.0029706 1.0097202
0.99506533 0.9993214 1.0019124 1.0013429 1.0052264 0.9976887 1.0019727 0.98435014

encoder.4.bias f4 [32]
00000000: f79a 0638 1556 b5bb 308c cf3b a444 4dbb
00000010: 6772 793b 4fa3 b93b c44a 42ba 6362 09bc
00000020: bf93 573b 2b78 0c3c db33 adba f953 25bb
00000030: 1c4b 19ba 92b9 693c 1419 9e3b f83d 8b3c
00000040: fa47 283c c43a d1bb 88f3 853b ef96 e93b
00000050: 683e 143b 8204 5f3c e6d0 bd3b 0ebf 503c
00000060: 795f 263c b4a2 06bb cca7 6e3c 71cd 833b
00000070: 58e6 1c3a 62ad da3b f05b 0c3c bfc3 abbb
3.2092412e-05 -0.0055339434 0.0063338503 -0.003132143 0.0038062574 0.00566522 -0.00074116536 -0.008385274
0.003289446 0.008573572 -0.0013214307 -0.0025227054 -0.0005847679 0.014265435 0.004824767 0.016997322
0.010271067 -0.0063851792 0.004087869 0.0071285884 0.0022620205 0.013611915 0.005792725 0.0127408635
0.010154598 -0.0020543756 0.014566373 0.0040222933 0.00059852516 0.006673501 0.0085668415 -0.0052418406

encoder.4.running_mean f4 [32]
00000000: a57b cf3d 3456 593e 1edf f43e cb96 6fbe
00000010: 4b38 e5bd e906 a3be 92a0 163b 2ba0 6a3d
00000020: 8900 84be c68a aa3e 05f8 87be 6c35 1e3e
00000030: ea1a 92bd bc3c f23e 039c a5bd f988 debd
00000040: a44f 67be bd33 073f 41b5 813d 494b 053d
00000050: 82ab 443d 830d 40be b2af 813e bdc2 b5be
00000060: da64 62be e44c ef3e 7c5f cc3e d518 f83e
00000070: 6450 bcbe abd4 a73d d033 263e f0c9 f73e
0.10131005 0.2122429 0.47826475 -0.23397367 -0.11192378 -0.3184121 0.002298389 0.057281654
-0.25781658 0.33309 -0.2655641 0.15450066 -0.0713404 0.47311962 -0.080863975 -0.10865969
-0.22588974 0.5281332 0.063333996 0.0325425 0.048015125 -0.18755154 0.25329357 -0.35500136
-0.22108784 0.4673835 0.399166 0.48456445 -0.36780083 0.0819486 0.16230702 0.48396254

encoder.4.running_var f4 [32]
00000000: adc8 ab3d f85d 0f3e fa92 603e 5f82 843d
00000010: f550 aa3e 983d 9d3d c10d 803d d446 913d
00000020: 0897 2b3e 4b90 833e 91b5 0a3e ea67 713d
00000030: 7465 903d 9e8b 493d 2ac1 d53d 81f8 293d
00000040: 7a49 b43d 443b a73d d85f ab3d f56e 053e
00000050: af34 973d 3a4a 023e 4e2c 043e 6d43 403e
00000060: 5d15 593e 5e9f 813d 3766 a73d 7cd7 913e
00000070: 3cee d93d ccf5 863e e257 c93d 9721 9b3d
0.08387885 0.1400069 0.21931067 0.06470179 0.3326489 0.07677764 0.06252623 0.070935875
0.16756833 0.25696024 0.13545825 0.05893699 0.07050601 0.049205415 0.10437234 0.041496757
0.08803077 0.08165601 0.0836789 0.13030608 0.073830955 0.12723628 0.12907526 0.18775721
0.21199556 0.06329225 0.08173793 0.28484714 0.10641143 0.26359403 0.098312154 0.07574766

encoder.7.weight f4 [64, 32, 3]
00000000: 070f 4bbc bdb2 39bd 9fa1 4bbd 617d dbbb
00000010: 30ce 67bd 236e bcbd a694 6e3d 381b be3d
00000020: 27a4 a9bd b81d 8a3c 0715 c1bd 7f5e 9ebd
00000030: afdc 91bd 35d0 9f3d e82c b2bd 92f7 bfbd
00000040: 72b0 7abc bf3c d5bd 8236 9f3d 24c5 413d
00000050: b4ff 4ebd 9fb9 a03d 159d b6bc 58a4 a73d
00000060: 0628 5cbd 7b69 a4bd 6748 88bd 8557 b73d
00000070: 21d4 143d c535 0c3d 3514 dcbd b346 373d
00000080: 5189 6a3d 3389 5f3c 5392 bcbd b1a3 4a3b
00000090: aa8f f3bc 7118 a53b 4383 0b3d 0484 013a
000000a0: 37c8 893d 424d 75bd c865 46bb d527 81bd
000000b0: a877 85bd 0a72 5d3d 9ec4 1fbd 1502 863d
000000c0: 62df 9c3d 889a 293c d97b 953d 9a1e 74bd
000000d0: 7507 cbbd 1835 133d beb4 bebc 6156 cfbd
000000e0: 84f9 a9ba 6bef d13c bceb a43d 523b 2bbd
000000f0: 6876 ad3d 2313 52bd a903 863d 0bfd b43d
00000100: 75d3 c93c 88fa b4bd a1d7 6abc d1c3 e4bc
00000110: 6e8e 14bb 97db 0d3d 7c97 a9bd 84a4 793b
00000120: 150d 9c3b 4a5b aa3d 3ac8 6b3d 6c79 783d
00000130: e222 99bd cdef 923d b505 073c a0da b9bc
00000140: 6883 bc3d 1da1 8bbc 371f 3bbc df75 98bd
00000150: af2d 56bd e473 883c 8042 a13c 61a9 76bd
00000160: a363 813c e6b2 4bbd 3b8b 2a3d 725e dfbc
00000170: 5bfc c7bd 7621 cebc 1f3f 2fbd ab86 673d
00000180: 0686 ce3d 2fd1 8c3c 7c78 d4bd e247 b1bd
00000190: 157c 5f3d 9426 b8bd ccb4 d4bd 45a1 13bc
000001a0: 0b96 08bd 6449 273d ead6 9cbb 3578 393d
000001b0: 9fb5 4ebd 3ebb c73c 05bc 18bc beae b6bd
000001c0: f28f cfbb cf84 993d d1a1 aebd 2d61 d53c
000001d0: 57e5 c63d bc37 43bd 2c03 d5bc ca1b dc3c
000001e0: c465 9abd e19d 9a3c 2dea 7abd eec5 043d
000001f0: e2e9 cb3d 6f82 233d 8b0c 9bbc 49b1 4bbd
00000200: 2f16 7abd c4ea 01bd 8bba 16bd 6c51 343d
00000210: 4b43 813d 4e19 993b 894f 953d 7f88 3c3d
00000220: d74c 6a3d be7f 8bbd a429 80bd 8285 54bb
00000230: 3b91 343d b7d9 daba 8f1e 2dbd 9889 473c
00000240: 2618 b0bd 9453 afbd 6744 2abd 7a79 a3bc
00000250: 42f9 fcbc a9f5 9a3d 2478 413d 7462 68bd
00000260: 72ff fc3c b730 aa3d 9043 423c 161d a8bd
00000270: 26b5 c93d 92fb a63c f539 a6bb c0eb 4ebd
00000280: 9c01 b9bd 447a b3bc 0a24 123c 08e1 553d
00000290: dbe2 34bb f66e 89bd d0fe 7abd 738b cebc
000002a0: f21f 89bc 803e aa3d 25c2 13bd f236 ce3d
000002b0: 21db 8cbd 3ca6 2fbd 7026 8fbd c489 5a3c
000002c0: d844 753d 1279 393c 2218 a8bd 38cb acbd
000002d0: a080 99bd 0233 bbbc 4b39 69bd bdcc 63bd
000002e0: f544 7bbd 5820 053c b3c1 70bd 2102 84bd
000002f0: aa6b 853d 9625 d9bc 82bd 213d 7ba6 c6bc
00000300: e21a b33c 46c1 503d 7a3b f6bc 7681 803d
00000310: f7d8 86bd edae 993d 1c7e 58bd 836f 80bc
00000320: dc51 e23c 3dde 8c3c ae67 49bc 9b64 34bd
00000330: 3708 a3bd 0483 773c 1f21 b73b 5a08 893b
00000340: db83 68bc 64f2 fd3c d047 bc3d c6bb aabd
00000350: 89b6 2fb9 bd3e 393d 39a9 593b 067f d5bd
00000360: 7aaf 3bbd aac6 cabc cb0d 0b3d 4739 12bd
00000370: 499d bebd fa1b da3c d955 a4bb be33 693d
00000380: d472 783d ea76 d1bc 9730 c43d 0f52 b7bd
00000390: 66dc 3f3c 1f9f 1bbc 6400 05bd df4e fb3c
000003a0: b665 a7bd 0274 aebc b9e4 9b3c a0ce debc
000003b0: e320 0e3d f3c2 c43d 0678 9e3c a476 713d
000003c0: 1bc2 18bd 2b5e 9dbc 8592 263d 11a6 96bc
000003d0: d467 8f3c 07b6 873d 192f d23d c913 b23d
000003e0: 89e0 3cbc e1f1 dbbd 5530 2a3c 2ea7 36bd
000003f0: 4b94 d03c c0de bc3d 662f 063d 9e18 8ebd
-0.0123937195 -0.045336474 -0.04971468 -0.006698296 -0.05659312 -0.092006944 0.05824723 0.09282535
-0.08283263 0.016859874 -0.09427839 -0.077328674 -0.0712217 0.07803384 -0.086999714 -0.09373392
-0.015300857 -0.10411977 0.077740684 0.04730715 -0.050536826 0.078479044 -0.0222917 0.08185643
-0.053749107 -0.08027931 -0.06654435 0.0895224 0.036335114 0.034230966 -0.10746042 0.04474516
0.05725986 0.013643551 -0.09207597 0.0030920322 -0.02973159 0.005038314 0.034060728 0.00049406313
0.06727641 -0.059888132 -0.0030273069 -0.063064255 -0.06516963 0.054063834 -0.039005868 0.06543366
0.076597944 0.0103517845 0.07299013 -0.059599496 -0.09913532 0.035939306 -0.023279544 -0.10123897
-0.0012968038 0.025626859 0.08052775 -0.04180462 0.0846985 -0.05128778 0.06543667 0.088373266
0.024636963 -0.088368475 -0.0143336365 -0.027925404 -0.0022667903 0.034633245 -0.082808465 0.0038092444
0.0047623017 0.08318193 0.057563998 0.060662672 -0.074773565 0.071746446 0.008241107 -0.022687256
0.09204751 -0.017044598 -0.011421016 -0.07444357 -0.05228966 0.016656823 0.01968503 -0.060220126
0.01579458 -0.049731158 0.041636687 -0.027266715 -0.0976493 -0.02516244 -0.042784806 0.056524914
0.10084157 0.01718959 -0.10374543 -0.08656289 0.054561693 -0.08991733 -0.10386047 -0.009010618
-0.033346217 0.040841475 -0.004786362 0.045280654 -0.050466176 0.024381276 -0.009322171 -0.08920048
-0.0063342983 0.07496034 -0.08526958 0.026047314 0.09711712 -0.047660574 -0.026002489 0.02686872
-0.075389415 0.01887411 -0.061258484 0.032415323 0.09956719 0.039919313 -0.01892688 -0.04972962
-0.061056312 -0.03171803 -0.036798995 0.044022962 0.06311663 0.004672206 0.07290561 0.04602861
0.057202186 -0.06811474 -0.06257942 -0.003242821 0.044083815 -0.0016696964 -0.04226547 0.012178801
-0.08598356 -0.08560863 -0.04156914 -0.019955385 -0.030880574 0.07566387 0.047233716 -0.056734517
0.030883525 0.08310073 0.0118569285 -0.08208673 0.098490044 0.02038363 -0.005072827 -0.050517797
-0.0903351 -0.021908887 0.008919725 0.05221656 -0.0027601037 -0.06710617 -0.061278164 -0.025212979
-0.016738866 0.08312702 -0.036073823 0.10069074 -0.06877733 -0.042883143 -0.06989753 0.01333851
0.059880108 0.011320369 -0.08207728 -0.084371984 -0.074952364 -0.02285147 -0.056939404 -0.055615176
-0.06134506 0.008125387 -0.058778476 -0.064457186 0.06514676 -0.02650718 0.03948737 -0.024249306
0.021863405 0.05096557 -0.030057658 0.06274693 -0.065843515 0.075040676 -0.052854642 -0.015678173
0.027626924 0.017195815 -0.012292786 -0.044041257 -0.07960551 0.01510692 0.005588665 0.004181904
-0.014191593 0.03099937 0.09193385 -0.08336596 -0.000167573 0.045225848 0.0033212437 -0.104246184
-0.045821644 -0.024752934 0.0339487 -0.035699155 -0.093073435 0.026624668 -0.0050151167 0.05693411
0.060656384 -0.025569398 0.0957958 -0.08951198 0.011710262 -0.009498387 -0.032471076 0.030677257
-0.08173697 -0.021295551 0.019029962 -0.027198136 0.034699332 0.09607496 0.019344341 0.058951035
-0.03729449 -0.019209942 0.040667076 -0.018389734 0.017505564 0.06626516 0.102628894 0.0869518
-0.011528143 -0.10739494 0.0103875 -0.04459303 0.025461337 0.09222174 0.032760046 -0.06938289

encoder.7.bias f4 [64]
00000000: dd7c 9c3c 51db d0bd 6098 9e3d 7c42 963d
00000010: 3689 513d 77ed af3d 5f41 7dbd 3645 073c
00000020: 991f 883c 3539 95bc 40a2 c3bd cf07 2a3d
00000030: f16e e93c 2489 1c3d 2651 0d3c 3b74 62bd
00000040: 9c47 b4bd 24f1 f63c e6cc 0bb9 a569 023d
00000050: 19a9 c6bd 03e6 18bd b5da ad3d f72f 95bd
00000060: 17e4 343d 3d2b a8bd cf87 953c df65 3a3d
00000070: b4b2 2ebd 25c3 cdbb d2ef b2bd 7ff6 8cbd
00000080: edc9 973d 3c1d b7bb d3de 2c3d a8ed 893d
00000090: 0dc8 2b3c e525 af3d ce06 aa3d 376a 793c
000000a0: 4e3b 053d 9900 57bd f68e 053d 49fd c2bd
000000b0: a867 a93c 9128 243d ba5b 64bd 7084 73bd
000000c0: c52c b8bc 6532 1b3c 09f5 a23d e00c a83d
000000d0: dd88 453d f815 2b3b c967 4bbd 7f56 7b3d
000000e0: 25ff 3fbd 72d8 883d 03c4 dcbc 6b3b 173d
000000f0: 49a8 38bd 1b4f 90bc 4009 fc3c 5a37 47bd
0.019102508 -0.10198081 0.07743907 0.073369 0.051156245 0.08590215 -0.06182992 0.008256247
0.01661663 -0.018215755 -0.09552431 0.041511353 0.028495284 0.038216725 0.008625304 -0.055286627
-0.08802721 0.030144282 -0.00013332404 0.03183903 -0.097002216 -0.03732873 0.08488981 -0.07284539
0.044162836 -0.08211372 0.018253235 0.045507308 -0.042650893 -0.0062793666 -0.08737148 -0.06882953
0.07411561 -0.005588202 0.04220469 0.067347825 0.010484708 0.0855215 0.08302079 0.0152230775
0.03252726 -0.052490804 0.03260704 -0.095209666 0.02067931 0.04007775 -0.05575154 -0.059452474
-0.022482285 0.009472464 0.07956893 0.08205581 0.048226226 0.0026105624 -0.049659524 0.061361786
-0.046874184 0.06681909 -0.026948934 0.0369219 -0.045082364 -0.017615845 0.03076613 -0.04863677

encoder.8.weight f4 [64]
00000000: ac73 803f 7cd8 813f 6552 803f 12d4 7f3f
00000010: 1a8c 803f 77ed 803f b4bd 7d3f 17b7 7d3f
00000020: 0128 803f d01f 803f 1a80 7c3f d353 803f
00000030: 36a2 7e3f f84e 7e3f 3404 803f 9360 7e3f
00000040: 9369 7f3f f753 7c3f 0d63 7e3f 85e5 803f
00000050: d15e 803f 93d0 7e3f bb88 813f 919d 813f
00000060: 5961 7d3f 4c91 7e3f 6048 803f faa6 7f3f
00000070: 3adf 803f 940e 803f 195f 813f cace 7f3f
00000080: 3a0a 803f 41b8 813f e284 7f3f c371 7f3f
00000090: 1461 803f 6f66 7f3f 15ed 7d3f 4cc8 7f3f
000000a0: 4359 803f fc3b 7f3f 3b0e 803f 7106 803f
000000b0: aa6d 803f 7c71 803f cf41 803f 22dd 803f
000000c0: be39 813f d943 803f 55c3 803f f7d6 7c3f
000000d0: 1d49 7f3f cb18 803f f737 803f 75ff 7b3f
000000e0: 002c 813f 696e 7f3f 55d4 7e3f 041f 803f
000000f0: fd09 803f 0d96 7f3f 41a8 813f b358 803f
1.00353 1.0144191 1.0025145 0.9993297 1.0042756 1.0072469 0.9911759 0.991075
1.0012208 1.0009708 0.9863297 1.0025581 0.99466264 0.99339247 1.0001283 0.9936611
0.9977047 0.9856562 0.9936989 1.0070044 1.0028936 0.9953701 1.0119852 1.012621
0.98976666 0.99440455 1.0022087 0.9986416 1.0068123 1.0004449 1.0107147 0.9992491
1.0003121 1.0134355 0.9981214 0.9978296 1.0029626 0.99765676 0.99189883 0.99915004
1.002724 0.99700904 1.0004343 1.0001966 1.0033467 1.0034633 1.0020083 1.0067484
1.0095747 1.0020705 1.0059611 0.9876551 0.99720937 1.0007566 1.0017079 0.9843667
1.0091553 0.9977785 0.9954274 1.0009465 1.0003048 0.99838334 1.0129472 1.0027069

encoder.8.bias f4 [64]
00000000: 762b 50bc 1f05 fb3b cad4 16b9 e8a7 f1b9
00000010: 547f 173b 050e fb3b 6a5b 093a 7f85 c73b
00000020: 76e1 253b 5c43 cb39 dea0 80bc 52f2 0e3c
00000030: a3cf 15bc 377c e0ba 45df 00bc 1d3e bbbb
00000040: 26d4 5f3a 6aaf babb 5441 833b 1abe 23bc
00000050: 5587 56bb 7afd 153c 72ad 0f3b a646 3a3c
00000060: e0a1 123a fb42 163c 3131 433c 7c97 cbbb
00000070: c0f4 40bb 843e c8bb f05c da3a ff70 7e3b
00000080: bd10 4b3c 7f4c 233c 6a35 023c 0e30 0f3b
00000090: 612c feba 2179 723c 3588 13bc 4e07 94bc
000000a0: 3c91 cab9 7203 9bb8 b79f 863a 2c09 23bb
000000b0: 988e df3b 2561 6c3c 740f 9dbb 5c35 663c
000000c0: 0e6f 593c dc3c 003b 8141 e2bb dd29 f8bb
000000d0: 6ae1 f23b e083 d23b b619 923c 3365 fbbb
000000e0: f991 5a3b 4cfe 69ba b657 d1bb cdbc 593c
000000f0: 5c47 01bb 6f6c 72bb ad77 053c 0a9a d93b
-0.012705674 0.0076605226 -0.00014384385 -0.00046092202 0.0023116665 0.0076615834 0.0005239757 0.006088912
0.0025311387 0.00038769364 -0.015701707 0.008724766 -0.009143743 -0.0017126863 -0.007865732 -0.0057141916
0.00085383875 -0.0056971805 0.0040055905 -0.009994054 -0.0032734473 0.009154672 0.002192345 0.011369383
0.0005593579 0.009171243 0.011913584 -0.0062131267 -0.0029442757 -0.006110968 0.0016659778 0.0038824675
0.012394127 0.009966969 0.007947305 0.0021848711 -0.0019391888 0.014799387 -0.009004642 -0.01806989
-0.0003863665 -7.391618e-05 0.0010270987 -0.0024877293 0.0068224184 0.014427458 -0.004793102 0.014050808
0.013271106 0.0019567525 -0.0069047813 -0.00757335 0.0074121254 0.006424412 0.017834526 -0.007671976
0.0033351167 -0.0008926138 -0.00638863 0.0132896425 -0.0019726371 -0.00369909 0.008146209 0.0066406773

encoder.8.running_mean f4 [64]
00000000: f240 8dbe d55d 1abf 0219 b83e 4d16 573e
00000010: bed6 16be 6f9b df3d ec57 47be 9be8 3f3f
00000020: 2cec 0bbe 8673 dd3e c814 a03e 0de1 253e
00000030: fdb7 67be ca9f 54bf edc2 493e f7c4 e93e
00000040: 0baa 923d 3137 0f3f 4120 4e3e 6115 a9be
00000050: a8f6 45be 3409 1d3d edf5 f33d d0bf 8abd
00000060: e1f0 193d 7ac8 a0bc a7eb d7be fb7d 0f3d
00000070: 3a03 7cbc ae17 62be 8a5f 1cbe fd90 a2bd
00000080: 90b6 bb3e c997 c2bc 5966 183d acab c53e
00000090: 2b01 98be 6c4d 5f3d 8eff ae3e c447 ec3e
000000a0: c78a 213d 50f2 673e db07 9b3e bc52 90bd
000000b0: 51df 0e3d d871 7d3c fda5 3ebf 5e37 e0be
000000c0: 338a 7c3d bc80 efbe 2255 f63e 2a6f f4be
000000d0: f18b e3bd 7e1c 8a3e 5384 f9bb 9fb7 f13e
000000e0: c6ff babe a6ef 03bf 3199 12bd c4d4 1bbf
000000f0: 7156 dd3e 5b2f 2ebd 8cb1 8fbd ff4a 31be
-0.27588612 -0.60299426 0.3595658 0.21004601 -0.14730355 0.109183185 -0.19467133 0.749643
-0.13664311 0.432522 0.31265855 0.16199131 -0.2262878 -0.8305632 0.19703265 0.45658085
0.07161339 0.5594359 0.20129491 -0.33024123 -0.19332373 0.038338855 0.11912141 -0.067748666
0.037583236 -0.019626845 -0.42171976 0.035032254 -0.015381629 -0.22079346 -0.1527082 -0.079378106
0.36662722 -0.023754017 0.03720698 0.38607538 -0.2968839 0.054517195 0.34179348 0.46148503
0.03943899 0.22651029 0.3027943 -0.0704703 0.03488094 0.015469037 -0.7447203 -0.43792242
0.061655235 -0.46777904 0.48111826 -0.4774106 -0.11110676 0.26974863 -0.007614651 0.47210404
-0.36523265 -0.5153755 -0.035790626 -0.6087153 0.43230012 -0.04252563 -0.07016286 -0.17313765

encoder.8.running_var f4 [64]
00000000: 0ed5 d73d aab1 223e 030f 2c3e 1905 563e
00000010: 054a a63e 0a95 0a3e 0d2d 113e 369d 6a3e
00000020: 2184 683e 7777 1a3e 4bca 913e bc1b 9c3e
00000030: b08d 793d fdda af3e aeab 9a3e ef08 7c3e
00000040: bbd6 1f3e 2ddf 053e ac4e 9e3d 71c1 eb3d
00000050: f11d 2b3e 07e1 c33d d640 243e 20dd 253e
00000060: ee70 fa3d 4e9c bd3e e2e5 113e 8f4b 8f3d
00000070: 966f f43d c895 153e b918 c73d 36a9 cd3d
00000080: 1f3c 2a3e 8cbb e13d 02cd c33d 920a 153e
00000090: 3da9 7f3f 3843 b33e ab0f 5d3e 49a1 f63d
000000a0: 9d24 5a3e bb62 f43d f71f 233e 88da f03d
000000b0: d12f 0f3e c03e 7b3e 1212 e23e 60e7 293e
000000c0: d7a2 7a3e 7794 0d3e dd3a 3b3d d754 7f3e
000000d0: 2806 b63d b6ee fb3d 0dea 553e 839a 5b3e
000000e0: 5d9d 333e d6e8 b13e a620 273e 1fdb 153f
000000f0: 62f0 7f3e 71a5 a43d afce 393e 2b11 8e3e
0.10538684 0.15888086 0.16802602 0.20900382 0.32478347 0.13533416 0.14177342 0.22911534
0.22706653 0.15084635 0.2847465 0.3048991 0.06092614 0.34346762 0.30209106 0.24612783
0.15609257 0.13073416 0.07729849 0.115115054 0.1671064 0.09564405 0.16040358 0.16197634
0.12228571 0.37033314 0.1424785 0.069968335 0.11935346 0.14607918 0.09721512 0.1004204
0.16624497 0.110221 0.095605865 0.14554814 0.9986761 0.3501222 0.21588008 0.120424815
0.2130303 0.11932894 0.15930162 0.117604315 0.13983084 0.24535656 0.44154412 0.16592169
0.24476181 0.13826166 0.045710433 0.24934708 0.08887893 0.1230139 0.20890065 0.2144566
0.17540498 0.34747952 0.16321048 0.5853748 0.24994043 0.08039368 0.1814525 0.27747473

encoder.11.weight f4 [128, 64, 3]
00000000: c10e 723d 1c95 543d 7390 a3bd dcb3 07bb
00000010: 2ca8 6e3d bc09 6b3d 445b 6a3c bafd a1bd
00000020: 6707 3d3d af5e 433d ff98 253d f10a 72bd
00000030: 993d 463d 066b 41bd d794 4f3d 2d25 3a3c
00000040: 1c6e 753d d4df 0dbd 63b6 16bd 62cd 25bc
00000050: a8c9 903d e960 25bd 8c04 983c d6de bbbc
00000060: fec5 17bd 5f3e 553d 770f b6bc ad20 51bd
00000070: 808b c1bc 9dd4 46bc ffc9 03bd f86c 33bd
00000080: 56cf 433c 9b95 913b 8487 c6bb eb90 173d
00000090: a8b2 5fbd e560 37bd d3b9 92bc 33bd 503c
000000a0: 4ced c73c 83da 253d 9f75 87bc 7df1 2b3d
000000b0: 656d 31bd 834f 1ebd a6a9 8cbc 6f4c e03c
000000c0: 35f0 2c3c 5eb7 f13c aed3 393b 3ec1 0e3c
000000d0: c62e 55bd e59d b3bc 932b aabc 9164 0d3d
000000e0: 295d 8abd c732 83bd e935 80bd 86e0 49bd
000000f0: becf 5ebd ef05 a53d b082 803d 8897 93bd
00000100: 50af e73c 25b4 d83c b066 123d cdc4 30bd
00000110: bb85 903d b00f 093c f76f 5abd 3c2c 8bbd
00000120: 7fb6 d9bb a93b 86bd 3dfd 81bd 67d9 cbbc
00000130: f065 4b3b 5408 813c a7ab f1bc 8783 073d
00000140: 58a9 873c eba7 813d dc51 4dbd 94f4 743d
00000150: afc3 e6bc ce04 b9bc b38c e33c 749f a6ba
00000160: 9f36 373d 74cd 29bd 8ac6 983d c665 cb3b
00000170: 970e 5f3d 27e8 abbc 431f 7bbc cc0e c3bc
00000180: 4061 543d 122f 1cbc 8067 ecbc 501b 82bd
00000190: 6034 84bd 6ec9 bf3c 5edf 3bbc f24f 9e3c
000001a0: 1bba 513d 4db3 28bd 4236 72bd 77aa e5bc
000001b0: a433 7bbd 9e8b e73c 664f 5bbd f23e c9bb
000001c0: 08cb 173d 821f 373d 9164 c0bc eb05 463d
000001d0: 983a 783d b40d 373d e4f1 f33c 17a6 c8bc
000001e0: 23be 893b 4fa3 183d 0727 703d b46a 3f3d
000001f0: 358c 6dbd b02b 88bd bd9f 2fbb 90b6 76bc
00000200: 2fb0 a83c 8137 493d 7512 22bc 89c1 333d
00000210: fdeb 32bd 60a7 b13c 9aae 6c3d ab0e 52bd
00000220: 600a 44bd 225d 05bd 118b 643d 7118 803d
00000230: be96 f9bc e192 c2bc de6c 71bd 6bd9 513b
00000240: 39c7 c43c ae84 c7bc cb10 a0bc 7879 333d
00000250: 15ec dfbc 1d35 1d3d 523c 1e3d cfde a8bd
00000260: 21e7 b73c 2e8d f5bc bcd4 883d 3e40 f83c
00000270: 1c63 44bd 1f28 8dbd 2073 37bd 4bdf 6d3d
00000280: f3f0 793d d752 80bd b2fe 463d 1beb 65bd
00000290: 00df adbc d6de 703d 8e77 9cbd 4a2f 2ebd
000002a0: 10ea 463c 164f 0e3d d157 7fbc 5264 cbbc
000002b0: 8353 28bd 156b 183d 9ae4 a5bc 88f6 943d
000002c0: b885 933c 7a13 8ebd cf4e 5b3d 9931 1c3c
000002d0: 55f0 24bd 7802 233c 7dd0 1c3a 8b3e 2fbd
000002e0: a1d2 4abc b753 b33c 31e3 8a3d 6c44 19bd
000002f0: 4d6a b9bc a5e8 b5ba 09f6 863d bbf0 28bd
00000300: c6f3 f13c 10f2 5c3c 73ed 8b3d 0583 543d
00000310: a11b 0ebd ac69 253d fd03 dd3c e174 2abd
00000320: d955 8dbd 2e12 983b b68d e5bc 2aee 8dbd
00000330: 7960 18bd f36b a03c 917b 39bc d3a3 913d
00000340: 599a abbc 34c7 9e3c 7897 87bd d499 873d
00000350: 00c7 1a3b 0f21 343b 3a22 26bd f909 523d
00000360: 0dd1 08bd 3427 9bbd 0a4e dfbc 0b7b 89bd
00000370: 4b57 afba abb9 873d e949 66bd a62d b0bc
00000380: e372 8e3d f296 013d 9e1e 163c 6f03 8e3c
00000390: 34ee 6cbc 8ab7 5c3d 7e12 173d db55 a1bd
000003a0: 4397 63bd 1a28 973c 809d f63b 8757 9abc
000003b0: d998 8cbd 1444 90bd 7460 bc3b bcdc 8a3d
000003c0: 2cdf 883d 6fd3 86bd 63a0 dfbb 2203 a1bc
000003d0: a17f 78bd 5116 803c aede 003d 9996 673d
000003e0: ac8d 443d 39c9 913d b459 6ebd 5c33 ccbb
000003f0: 4b8d f5bc f4ed 95bd 222d 5c3d 6ee7 623c
0.0590961 0.051900014 -0.07986536 -0.002070657 0.05826585 0.05738233 0.014303986 -0.079097226
0.046149638 0.04769772 0.04042911 -0.059092466 0.048398588 -0.047221206 0.050679054 0.011361402
0.05991946 -0.034637287 -0.03679503 -0.010119768 0.07069713 -0.040375624 0.018556856 -0.022933405
-0.037054054 0.052061435 -0.022224171 -0.051056553 -0.02362609 -0.012135652 -0.03217506 -0.043805093
0.011951288 0.004442883 -0.006058635 0.03700344 -0.05461374 -0.04477014 -0.017910874 0.012740421
0.024405144 0.040491592 -0.016535578 0.041978348 -0.043317217 -0.038650047 -0.017170738 0.027380196
0.010555317 0.029506382 0.002835493 0.008713065 -0.05204656 -0.021925876 -0.020772731 0.034519736
-0.0675605 -0.064061694 -0.062602825 -0.049286388 -0.054397337 0.08057772 0.06274927 -0.07206637
0.028281838 0.026453087 0.03574246 -0.043156434 0.07056757 0.008365557 -0.053329434 -0.067955464
-0.0066440697 -0.06554348 -0.063471295 -0.024883939 0.0031036101 0.015751041 -0.029500796 0.03308442
0.016560242 0.06330856 -0.050126895 0.05980356 -0.028169481 -0.022585299 0.027777052 -0.0012712316
0.044729825 -0.0414557 0.07459743 0.0062072007 0.054457273 -0.020984722 -0.015327278 -0.023810767
0.051850557 -0.009532707 -0.028857946 -0.06352866 -0.06455302 0.023411479 -0.011466829 0.01932523
0.051202875 -0.04118662 -0.059133776 -0.028035386 -0.061328545 0.028264817 -0.053542517 -0.006141537
0.03705886 0.044707783 -0.023485454 0.048345488 0.060602754 0.044690803 0.029778428 -0.02449326
0.0042035743 0.03726512 0.05863097 0.04673262 -0.05799504 -0.06648958 -0.0026798092 -0.015058175
0.020591823 0.0491252 -0.009892096 0.04388574 -0.043682087 0.021686256 0.0577837 -0.05128352
-0.047861457 -0.03255952 0.055796687 0.06254662 -0.030467387 -0.023751678 -0.058941714 0.003202046
0.024020778 -0.024355259 -0.019539258 0.043817014 -0.027334252 0.03838073 0.038631745 -0.08245622
0.022449078 -0.029974546 0.06681201 0.03030407 -0.04794608 -0.06892418 -0.044787526 0.058074277
0.061020803 -0.062658004 0.04858274 -0.056132417 -0.021224499 0.058806263 -0.07639991 -0.042525567
0.012140766 0.03474339 -0.015584902 -0.02482811 -0.041095268 0.037211496 -0.020250607 0.072735846
0.018008098 -0.069373086 0.053541955 0.009533309 -0.04026826 0.009949319 0.0005981995 -0.042784255
-0.012379319 0.021890504 0.067816146 -0.037418768 -0.022633696 -0.0013878538 0.06589896 -0.041245203
0.029535186 0.013485447 0.06832399 0.051882762 -0.034694318 0.04038398 0.02697944 -0.04161537
-0.0690114 0.004640839 -0.028021675 -0.06930192 -0.03720138 0.019582724 -0.011320964 0.07111325
-0.020947622 0.019382097 -0.06620687 0.06621137 0.0023617148 0.0027485525 -0.040559985 0.051279042
-0.03340249 -0.07575837 -0.027258892 -0.06712922 -0.0013377456 0.0662721 -0.05622283 -0.021506142
0.06955507 0.031638093 0.009162573 0.017335622 -0.014461089 0.053885974 0.03688287 -0.07877704
-0.055564176 0.01845174 0.0075260997 -0.018840564 -0.06865091 -0.07044235 0.005748803 0.06780383
0.06683192 -0.065832965 -0.0068245395 -0.019654814 -0.06066859 0.015635641 0.031462364 0.056540105
0.04798667 0.07118458 -0.058191016 -0.0062317085 -0.0299746 -0.073207766 0.05375398 0.013849122

encoder.11.bias f4 [128]
00000000: da1e 5f3d 061f 17bc 3276 fdbc dbaa 98bb
00000010: 8624 91bc a0f5 7f3d 5455 8a3d 10ce 5abc
00000020: fe66 4abd f55f 913d 4c4a ab3c 1f9c 73bd
00000030: 383a fbbb 8d4e 2bbd 5b3d 193d 04d3 76bd
00000040: e6dc 1b3d 519f 1dbc 3ee3 e83c 486c dcbc
00000050: 1e91 2e3c 8b3e 87bd ba6a 82bb 01a2 763d
00000060: 46eb 123d 7a7c 403d 9112 f5ba 6102 e3bc
00000070: 9dee 433a 264a cfbc bbe1 f2bc 7ba0 5d3d
00000080: f0be 84bd 023c fb3b 1803 b2bb 8cc3 d23c
00000090: c142 80bc f45a 1f3d 3d57 e83c 8fe3 6ebd
000000a0: b50b 4fbd 63fb 743d 20d6 243d ec8d 4a3c
000000b0: d11c 32bd 7003 643d 686f 4e3b 175b f03b
000000c0: f282 74bd be1c 62ba 829b d5bc 3d1b bb3c
000000d0: 2fe4 193b 3f1f 903d 0519 813d 63ec 353d
000000e0: 7acf 88bd 3b71 ccbc c221 603d e463 a43c
000000f0: 818a e7bc ea7d 72bd 58c1 053c a586 18bd
00000100: af6f 103d 6743 e73c e336 ba3c 7fe6 31bd
00000110: c05f d5bb d3cc b83c b543 5cbd c7ba 003d
00000120: 31b4 2bbc fcb7 c7bc ab95 6cbd 6698 8cbc
00000130: 442b 7f3c 904d 56bd 9b7b 7fbd 058e 08bd
00000140: 92cc 3ebd 165d ee3b 2d04 93bd fe7f 803c
00000150: e5e7 30bd 3ad1 7ebb d3e5 52bb 1211 0f3c
00000160: 1352 04bd 1dde 68bd 6909 173c 0feb 5abc
00000170: d2ec 133b 3bbf 3f3d 10f0 58bd 4c9c 18bb
00000180: 46ed 20bd 9427 58bd 35c4 3abd 51f8 293d
00000190: 578a 5dbd d4b1 92bd 57ce 1f3d fecc 993c
000001a0: 13e6 ba3c bfc3 3c3d a5f3 0d3c 9921 66bd
000001b0: da5a 4d3d 9bee 23bc ef4e 6b3b 807c 233d
000001c0: d4b7 88bd fb0c 9cba af45 453b cbb9 8ebc
000001d0: fd75 273d e0c2 bcbc 7b15 d13b 3806 443c
000001e0: 2cfc e7bc 574a 463c bbfe 1bbc e0ec 7b3c
000001f0: fb2d 18bd 2ceb 00bc 900d 35bd f39c cc3c
0.05447278 -0.009223705 -0.030940149 -0.0046590394 -0.017717611 0.062490106 0.06754556 -0.013354793
-0.049414627 0.070983805 0.020909451 -0.05947506 -0.0076668523 -0.04182296 0.03741203 -0.060259834
0.038052462 -0.0096205035 0.02842867 -0.026907101 0.010654716 -0.06603726 -0.003980008 0.060213093
0.035868905 0.04699371 -0.001869755 -0.027711095 0.0007474216 -0.025303911 -0.029648652 0.054108124
-0.06481731 0.0076670656 -0.0054324977 0.02572801 -0.01565683 0.0389051 0.028361911 -0.058322486
-0.050548274 0.059810054 0.040243268 0.012362938 -0.043484513 0.05566734 0.0031499509 0.0073350775
-0.05969519 -0.0008625499 -0.026075128 0.022840137 0.0023481955 0.0703721 0.063036 0.04441489
-0.06680198 -0.024956336 0.054719694 0.020067163 -0.028264286 -0.059202112 0.0081637725 -0.037237782
0.03526276 0.028230382 0.02273125 -0.04343271 -0.0065116584 0.022558605 -0.053775508 0.031428125
-0.010479973 -0.024379723 -0.057759922 -0.017162513 0.01557428 -0.052320063 -0.06237374 -0.033338565
-0.046581812 0.0072742803 -0.07178531 0.015686031 -0.0431899 -0.0038882033 -0.0032180443 0.008732097
-0.032304835 -0.05685245 0.009218552 -0.013361706 0.0022571576 0.04681323 -0.052963316 -0.002328652
-0.03928878 -0.05277212 -0.045597274 0.04149658 -0.05408701 -0.07162824 0.03901514 0.018774506
0.022814786 0.046085116 0.008664046 -0.056184385 0.05013547 -0.010005618 0.0035905202 0.039913654
-0.066756874 -0.0011905724 0.003010135 -0.017422577 0.040884007 -0.023042142 0.0063807345 0.011964373
-0.028318487 0.012102685 -0.009521182 0.0153763 -0.037153225 -0.007868569 -0.044202387 0.024977183

encoder.12.weight f4 [128]
00000000: 5b0c 7f3f 9021 7f3f 253b 7e3f f0e6 803f
00000010: 650a 7f3f c35a 803f 916a 7f3f 455a 813f
00000020: 6b5c 803f 526d 803f a9af 7f3f c5a1 7e3f
00000030: d4d4 7f3f 4b22 803f cb94 7d3f 65c5 803f
00000040: 742b 7f3f aa07 7f3f f07d 803f 8561 803f
00000050: 5fa8 7e3f d988 813f 6979 803f 43db 7e3f
00000060: 8df4 7f3f ebe9 7d3f 9562 803f 4067 803f
00000070: 265d 803f 6849 803f d603 803f 8463 803f
00000080: 2932 813f b61c 803f 8512 823f 72c1 7f3f
00000090: e9cb 7f3f d099 813f 3c70 803f 158a 823f
000000a0: e324 803f 4e76 803f 0068 803f 1a64 813f
000000b0: 6698 7e3f 9fd0 803f 7067 7e3f ef60 803f
000000c0: ac7b 823f 6c60 803f a1e3 803f 2505 803f
000000d0: 725e 803f 3d55 813f 4b02 7d3f 9ab8 7c3f
000000e0: 4c18 803f f564 7f3f 4595 813f 382f 7f3f
000000f0: e7c8 7d3f 4e00 7f3f 1112 7f3f d351 803f
00000100: c1be 7f3f c2e8 7f3f c50c 803f 5641 803f
00000110: d0d0 7d3f 89a7 7e3f be62 7f3f b7b2 803f
00000120: 09a8 803f f86f 7f3f ab70 7f3f ec03 803f
00000130: bfcf 7c3f 5f48 7f3f a9d0 803f 1c58 803f
00000140: a2b6 7e3f f250 813f f8cb 7d3f 8c12 7e3f
00000150: 0985 803f c6e7 7e3f b55f 803f 7e75 7d3f
00000160: 92fe 7e3f 4764 803f 8728 803f 4128 803f
00000170: a764 7e3f 2dba 7c3f 222e 813f fdb8 7b3f
00000180: c3da 7e3f d970 803f 1c50 7f3f 5944 7e3f
00000190: 4bf6 7f3f a403 7f3f 4edd 803f 2fc5 7d3f
000001a0: f081 803f 4709 813f 9a2a 7f3f 5d23 803f
000001b0: b682 803f bd61 803f 530d 813f d3b9 803f
000001c0: 22e2 7f3f 9dea 813f f6df 7d3f 616e 7f3f
000001d0: 2e85 7f3f fd03 803f f3da 7c3f 116f 803f
000001e0: dcb6 7d3f 932c 803f 256c 7e3f 2223 7e3f
000001f0: f0c8 7f3f 8503 803f e9a3 803f f4c9 7c3f
0.9962823 0.9966059 0.99309 1.0070477 0.99625236 1.0027698 0.9977198 1.0105673
1.0028204 1.0033362 0.9987741 0.9946559 0.99934125 1.0010465 0.99055165 1.006024
0.9967568 0.9962107 1.0038433 1.0029761 0.99475664 1.0119888 1.0037051 0.99553317
0.9998253 0.99185055 1.0030085 1.0031509 1.0028427 1.0022402 1.0001171 1.003037
1.0093433 1.0008762 1.0161902 0.9990455 0.9992052 1.0125065 1.0034251 1.0198389
1.0011257 1.0036104 1.0031738 1.0108674 0.9945129 1.0063666 0.99376583 1.0029582
1.0193992 1.0029426 1.0069467 1.000157 1.0028822 1.0104138 0.98831624 0.9871918
1.0007415 0.99763423 1.0123678 0.99681425 0.9913468 0.9960984 0.9963694 1.0024971
0.9990044 0.99964535 1.0003897 1.0019939 0.9914675 0.9947439 0.99760044 1.005454
1.005128 0.99780226 0.9978129 1.0001197 0.98754495 0.99719805 1.0063678 1.0026889
0.99497426 1.0102828 0.99139357 0.9924705 1.0040599 0.9957241 1.0029207 0.99007404
0.99607193 1.0030602 1.0012368 1.0012285 0.99372333 0.9872158 1.0092204 0.98329145
0.99552554 1.0034438 0.9973161 0.9932304 0.9998519 0.9961493 1.0067537 0.99129003
1.0039654 1.0080956 0.9967438 1.0010792 1.003989 1.0029827 1.0082191 1.0056709
0.99954426 1.0149723 0.9916986 0.997778 0.9981259 1.0001217 0.9877159 1.0033895
0.99107146 1.0013603 0.99383765 0.9927236 0.9991598 1.0001074 1.0050021 0.98745656

encoder.12.bias f4 [128]
00000000: 0dda cf3a eded 8aba 5684 55bc 4080 3d3c
00000010: 3854 6d3b 92ce d7bb 6d88 9fbb 722b 813c
00000020: 2d41 5c3c ac7f 543c ce88 553a 6e8b 89ba
00000030: e9b1 feba fedd 6f3c a912 063c 82fd 4e3c
00000040: f5fe 6e3b 02df 443b 666d 96bb e4e4 0c3c
00000050: 6a5a 29bb dadd 563c 363f a63b e794 8a3b
00000060: e1c7 f73a 81e9 ebbb 9297 033c e2af 383c
00000070: 5725 3338 48c8 c93b b339 48bb 8ede 2f3b
00000080: 1827 203c 7c00 293c 0a8a 933c 07d1 013c
00000090: ccf1 cbba e403 573c 0d67 133c 5b5d 403c
000000a0: 3693 ddba 390f 283c 3dbe ce3b 06cb bd3a
000000b0: 8a45 5cbc 4aa2 4b3c 2c67 48bb d940 0238
000000c0: 05e8 663c e0db 513b e8d5 343b bcbf 673b
000000d0: 3b71 a33b 14db 023c c151 a1bb e549 f0bb
000000e0: 2b23 123a 4f2f 9d3b dc40 413c 7ce0 06bc
000000f0: 4322 a6bb b34d ad3b f764 23bc b381 443b
00000100: ae02 57bc fe0a e13a 6c2f c63b 36c5 803a
00000110: 1a4c 7ebc 5b3b abbb 351c a3bc dbac 0f3c
00000120: 66ba ce3b e92d 4e3b 8788 393b f3d0 3cbb
00000130: 6c9d ceba ae86 60bb 30a3 573c ac98 153b
00000140: 4b0a a8ba 8745 0fbc 5d1d b7ba 6166 d9bb
00000150: 6dd7 f939 22cd d33b e453 f83a 9a62 73bb
00000160: ec80 2fbc 8b8d 193c 3c7d 3ebb 64a6 003c
00000170: 2962 73ba 1103 20bc 6497 c73b c029 8dbc
00000180: 942d e13a eaa4 c1b9 b4d1 13bb a856 beba
00000190: 31ce a13b 265c 143a 5365 54bb 9045 20bb
000001a0: df5b 183b 1cff 9abb 1901 fabb cebd f1bb
000001b0: 7364 fdba e54c f03b d2b4 863b f431 c03b
000001c0: f2c1 d43a 5f47 933c 088f ddbb 9f4c 643b
000001d0: fc50 92bb 382b 51ba 47e0 9abb ff26 473a
000001e0: 6b64 bebb 7fa9 08bb fc23 0cbc d24e 07bc
000001f0: a79d b1bb 85f3 adbb 18dc 41bc 26b2 37bc
0.0015857831 -0.0010599472 -0.01303204 0.011566222 0.0036213528 -0.0065859044 -0.004868558 0.015767787
0.0134432735 0.0129698925 0.00081456907 -0.0010493824 -0.0019431683 0.014640329 0.00818316 0.012633683
0.0036467884 0.003004015 -0.004590678 0.008599494 -0.0025841244 0.013114417 0.0050734533 0.0042291763
0.0018904173 -0.0071994667 0.008031743 0.0112724025 4.27117e-05 0.0061579086 -0.003055197 0.0026835534
0.009774946 0.010315057 0.018010158 0.007923371 -0.0015559732 0.013123486 0.008996737 0.011741008
-0.0016904834 0.010257536 0.0063092993 0.0014480061 -0.013444314 0.012428829 -0.0030579073 3.105481e-05
0.014093404 0.0032021925 0.0027593318 0.0035362085 0.0049878634 0.007986803 -0.004923076 -0.0073330277
0.00055746984 0.0047968994 0.011795249 -0.008232232 -0.0050700023 0.0052888035 -0.009972802 0.0029984533
-0.0131231975 0.0017169414 0.0060481336 0.0009824398 -0.015521074 -0.0052255816 -0.019910911 0.008769239
0.0063088415 0.003146047 0.0028310136 -0.0028811067 -0.0015763468 -0.0034259963 0.0131614655 0.0022826595
-0.001282045 -0.008744604 -0.0013970543 -0.006634519 0.00047653486 0.0064636627 0.00189459 -0.0037137629
-0.01071189 0.009372125 -0.0029066345 0.007852171 -0.00092843414 -0.009766356 0.006091045 -0.017231822
0.0017179721 -0.000369347 -0.0022555413 -0.0014521675 0.00493791 0.0005659483 -0.0032409027 -0.0024455525
0.0023248119 -0.0047301184 -0.0076295254 -0.007377363 -0.0019332304 0.0073333853 0.004110911 0.00586533
0.0016232117 0.017978368 -0.0067614354 0.0034835709 -0.0044652205 -0.00079791574 -0.004726443 0.00075970584
-0.0058103106 -0.002085298 -0.008553501 -0.008258538 -0.005420405 -0.005308571 -0.01183226 -0.0112119075

encoder.12.running_mean f4 [128]
00000000: d268 23be 7357 e5bc d80d 9ebe 65a6 23bf
00000010: cd69 1a3e 0169 f03e 6123 08bf 8ba8 42be
00000020: 4873 13be 1924 02bf 2c9f 31be 5861 0abf
00000030: 1bcc 063f 7a9e 06bf 7fa5 dd3d 5adb 57be
00000040: 6947 d53e c07d 413e 90bf d73e a401 e9be
00000050: 299b 16bf eda1 e2be 8409 abbe 8125 4ebd
00000060: c43b 923e 0f5f 0f3d f484 df3d b023 ddbe
00000070: 41a6 b23c 1fc7 b83b 68b9 fabe 839c 83be
00000080: 71c7 67be 7459 3dbe 8a0c e83d d851 853e
00000090: a3a6 54bd d447 0ebe 6e61 2cbe 767c 1dbf
000000a0: 68aa 823e 1abc 3e3e c3ff 4e3f 3b30 033e
000000b0: 0694 28bd 6a0f 12be d9d2 093f c233 d7be
000000c0: d70e bcbd 4f23 c3be 77d4 dd3c 2a37 cc3d
000000d0: df0b 09be 51c3 06be f632 503f 2219 f8be
000000e0: 0629 803e 226a c33e 8243 223e a719 9c3e
000000f0: 1678 ce3c 0494 25bf abaf dfbc bac6 00be
00000100: c5b2 24be 0a6c 75be a4f2 ee3e 22c3 b8bd
00000110: 81bf bc3e 283f 4bbd ac60 2d3e 32e4 9a3e
00000120: c0db cebc a55e f8be d39b d63d 15d9 033e
00000130: 9b9b 013e 7e1d 633c 2357 6bbe f6f3 f8be
00000140: aa98 17bf 816a 87bd 5146 633d c7ee cfbe
00000150: cdaa 463e a978 a83e ed48 963a 16f5 4f3e
00000160: 22f2 dbbe 1544 a3bd 69c1 9dbe a224 ff3c
00000170: fb91 ebbe ac68 eb3c 7d74 ccbe 9a98 5fbe
00000180: f6ea 85be 22af 22bf 3965 143f f9cc 7ebe
00000190: 585d 133f 11fe a53d 3db6 9abe bb26 bc3e
000001a0: a88c 88be b1a0 b0be d65a 28be b276 edbe
000001b0: d207 a83d 8c66 21be ad41 1b3e db34 e3be
000001c0: a5a4 9c3d 8688 5fbe 5388 6dbe 0f0a 4c3e
000001d0: 5a93 4cbe e863 fabe 2ec8 1cbf 58ff c3be
000001e0: 0d96 b53d 2448 2f3e 4e42 acbd 5429 9c3e
000001f0: d85e a9be 2cce 9dbe 94db acbe d307 b13e
-0.15957955 -0.0279958 -0.30869937 -0.6392577 0.15079422 0.46955112 -0.53178984 -0.19009607
-0.14399445 -0.5083633 -0.17345876 -0.54054785 0.5265519 -0.52585566 0.108225815 -0.2107977
0.41656044 0.18895626 0.42138338 -0.45509064 -0.58830506 -0.44264165 -0.33405697 -0.050328735
0.28561223 0.035002764 0.10914031 -0.4319129 0.021807792 0.0056389715 -0.4896958 -0.25705346
-0.22634675 -0.18491155 0.11330517 0.26039004 -0.05191673 -0.13894588 -0.16834041 -0.6151804
0.25520635 0.18626443 0.8085901 0.12811367 -0.04115679 -0.14263692 0.53837353 -0.42031676
-0.09182518 -0.38112876 0.02707885 0.09971459 -0.13383435 -0.13160445 0.8132776 -0.48456675
0.25031298 0.3816691 0.15846065 0.3048832 0.025203746 -0.6467898 -0.027305445 -0.12575808
-0.1608382 -0.23966995 0.46669495 -0.09021594 0.36864856 -0.049620777 0.16931409 0.30252224
-0.02525127 -0.48509708 0.1047894 0.12875779 0.12657015 0.013862012 -0.22982459 -0.48623627
-0.5921732 -0.06612111 0.05548698 -0.4061186 0.19401093 0.32904556 0.0011465825 0.20308337
-0.4295817 -0.0797197 -0.30811623 0.031145398 -0.46009812 0.028736435 -0.39932624 -0.21835557
-0.26155823 -0.6354848 0.57966954 -0.24882878 0.57564306 0.081051 -0.30217162 0.367483
-0.26669812 -0.34497598 -0.16440901 -0.4637962 0.082046166 -0.15761775 0.15161772 -0.44376263
0.07648591 -0.21829423 -0.23196535 0.19925712 -0.19978085 -0.48904347 -0.6124295 -0.3828075
0.088665105 0.17117363 -0.08411084 0.3050028 -0.33080173 -0.3082136 -0.33761275 0.34576282

encoder.12.running_var f4 [128]
00000000: 0143 f93d 584d 9d3e 65a7 fc3d 8fcf 2f3e
00000010: c41a b43e 48fe fc3d bd5a 3d3e a343 903e
00000020: 114e f53e a0e3 3b3e a2ba fb3e 7621 593e
00000030: 2217 a73d fcb3 073e 00b1 f23d 828f 523e
00000040: 9b30 a73e cacc a33d 8c2c 463e 3a5b ee3d
00000050: ff2e b93d b7b0 7d3e 13ed f73d ad1b 0a3e
00000060: 4cdf 403e 9e9f 4f3e a3a9 f63d 5842 af3e
00000070: 3454 153e 7b27 6d3e aef5 513e 1583 563e
00000080: 7cff 023e c608 e23e c471 853e 79a8 3b3e
00000090: 951f 463e 1d6a a03e 18d4 153e 0d93 ec3d
000000a0: d0fb fb3d fa15 863e 7dd7 203e fbc1 183e
000000b0: a07d 593e 2d2e 9d3d 9a2d 7b3e c01b a83e
000000c0: 682c e33d 715c 0c3e 911f 993e b3c0 783e
000000d0: ee9b 593e 92c1 e03e d223 8a3e 984f 923e
000000e0: 9f1e a03e 3496 9d3e 43ee 373e 8106 3a3e
000000f0: ccb8 213e bc41 9c3e 1615 043e 4b9f 953d
00000100: b0aa 0d3e 671e 2e3e bd55 953e e6c2 643e
00000110: d364 d23e 3461 e13d 6f0f 8e3d 0829 663e
00000120: 1f4f 2a3e fa03 aa3e 1f70 0f3e cf01 ef3d
00000130: b192 1b3e 78c8 063f 7cfd 883e fb84 4f3e
00000140: c321 963e f205 443e cc9b 923e bfa4 ae3e
00000150: 57ed 1f3e f9e5 823e 43d6 fa3d 3465 473e
00000160: bd86 343e 1724 c33d 7f0f 1d3e 605a 033f
00000170: 9df7 db3e d76a 2d3e b10d 9d3e d513 423e
00000180: 2bfe 563e 9c10 c93e af68 703e 95ed 5e3e
00000190: c170 8b3e e7d6 673e d1f7 553e 8b3d e73d
000001a0: 8e82 273e 294e 103e 927a 913d c0c2 8f3e
000001b0: 83a2 313e a52d d33d 8b8c 5c3e 6f89 1e3e
000001c0: f82c b03e 74dd e23d 05c8 683e 246a 973e
000001d0: eac7 b23d 3486 d83e 56cc 6d3e 1a40 843e
000001e0: 8cb6 3a3e c2c5 8e3e f7ed 7b3e ffe3 6b3e
000001f0: b26a 753e 59ac 313e 4741 ce3d ad9b 383e
0.12170983 0.3072307 0.123366155 0.17169021 0.3517667 0.12353188 0.18491645 0.28176603
0.47911122 0.18348551 0.49165827 0.2120417 0.08158709 0.13252252 0.11850166 0.20562556
0.3265427 0.07998045 0.19352931 0.11638494 0.09042167 0.24774443 0.12105765 0.1348712
0.18835181 0.20275733 0.120440744 0.34230304 0.14582902 0.23159592 0.20503876 0.20948441
0.12792772 0.4414732 0.2606336 0.18325986 0.19347985 0.31330958 0.14631689 0.11551485
0.12303889 0.26188642 0.15707202 0.14917748 0.21239328 0.07674823 0.24529114 0.32833672
0.11092454 0.13707139 0.29906896 0.24292259 0.21250889 0.43897682 0.26980454 0.2857635
0.31273362 0.30778658 0.17961983 0.18166544 0.1579315 0.305189 0.12898669 0.07305773
0.13834643 0.17003785 0.29166976 0.22339973 0.41092548 0.11004868 0.069365375 0.2247659
0.16631745 0.3320616 0.14007615 0.11670267 0.15192677 0.5264964 0.26755893 0.20265572
0.29322633 0.19142893 0.2863449 0.34110066 0.15617882 0.2556608 0.122478984 0.194722
0.17629524 0.09528368 0.15337943 0.51309776 0.4296235 0.16935287 0.30674508 0.18952878
0.20995395 0.39270484 0.23477434 0.21770318 0.27234462 0.22640572 0.20895316 0.11291035
0.16358396 0.14092316 0.071034566 0.2807827 0.1734715 0.103114404 0.21537988 0.15482114
0.34409308 0.11077395 0.22732551 0.29573166 0.08729537 0.4228989 0.23222479 0.25830156
0.18233699 0.27885252 0.24602495 0.23036192 0.23966482 0.17350902 0.100710444 0.18028136
