NNp1/kernel_model_728.pth (torch, 50282 bytes, 30 tensors)

net.0.weight f4 [32, 10]
000000 8f 4c 8b 3e c8 34 13 3d c8 6c 77 bb 43 3a 54 bc
       0.27206847 0.035939008 -0.0037754048 -0.012953344
000010 59 67 90 3d 4c ad 91 ba bf 66 21 3e 6f 2b 99 3d
       0.07050962 -0.0011114269 0.15761851 0.074789874
000020 1b ff bf 3d b4 a4 0e be bc 45 14 3d 01 2d 18 bb
       0.093748294 -0.13930017 0.036199316 -0.0023220184
000030 20 bd 23 3e 06 a9 a2 3d b8 2e 82 bb 8d e0 cc 3b
       0.15990114 0.07942395 -0.0039728545 0.0062523545
000040 4e 7a d4 3c 70 01 65 3e 38 36 3e 3e 70 76 f2 3e
       0.025937226 0.2236383 0.1857537 0.47355986
000050 1e 39 a8 3a 82 5a c4 3d 7a 09 95 3e a7 62 06 3e
       0.0012834405 0.095875755 0.29108793 0.1312357
000060 f2 cc c6 3e ed fb d4 bd 2d a3 bd bd 21 0b 81 bd
       0.38828236 -0.103996135 -0.09259639 -0.06300951
000070 a8 5a ab 3e 41 de b2 3d ff 29 5d be 4e 9c 1a be
       0.33467603 0.08733798 -0.21598051 -0.15098688
000080 0f 85 c1 be 4d 01 0e 3e 5f 6d c4 be a9 fc 13 bd
       -0.37796828 0.13867684 -0.38364694 -0.036129627
000090 d8 04 74 3e 80 98 3a be 88 a3 08 bf 1c 32 82 be
       0.23829973 -0.18222237 -0.5337453 -0.25428855
0000a0 62 89 de 3c ac 15 00 3e 69 a8 7f 3e f3 55 88 3e
       0.027165119 0.12508267 0.24966587 0.26628074
0000b0 89 15 80 bd 93 81 ca 3e c2 7d 9b 3e ef 62 39 3e
       -0.062541075 0.39551982 0.30369383 0.18104146
0000c0 86 16 c2 3e 00 ae 4a 3e da d2 37 3d 13 b4 6c 3d
       0.3790781 0.19792938 0.044878818 0.05778892
0000d0 fb ca a5 3e 3f e0 a6 3e cb 64 f1 3e fd 26 c3 3c
       0.32381424 0.3259296 0.4714721 0.023822302
0000e0 c0 77 b5 3e a2 92 7d bd 5c 6d 82 bb 49 60 07 3f
       0.35442924 -0.061907418 -0.003980322 0.52881294
0000f0 06 57 46 3e c8 da e2 3d 14 b0 a3 3e 22 3c 8b 3e
       0.19369134 0.110768855 0.31970274 0.27194315
000100 ba a9 c5 3e da 15 6f 3e a2 76 ac bc ae e6 32 3e
       0.38606054 0.2334818 -0.021052662 0.1747081
000110 99 1b 47 bd f4 06 85 3d 56 59 45 3d 30 83 3d 3d
       -0.048610304 0.06495467 0.0481809 0.04626769
000120 88 b7 87 3e e3 26 17 3e 05 98 ea 3e 6e 69 73 3d
       0.2650721 0.14760928 0.45819107 0.059426717
000130 ba 57 de 3c 5c 62 95 3e 52 d6 79 3e e9 f3 bb 3d
       0.02714144 0.29176605 0.24398163 0.091773815
000140 0c fd d0 3c 67 70 82 3e 15 57 29 3e c1 51 43 3e
       0.025511287 0.2547638 0.16537125 0.19074155
000150 d8 90 c6 3d 1e 94 d8 3d 2a 12 fc 3c 36 0b c1 bd
       0.096955955 0.10575126 0.03077038 -0.094259664
000160 3f f3 8e 3d a8 d0 11 3e 43 aa a7 bb 11 d7 0e 3e
       0.06979989 0.14239752 -0.0051167323 0.13949229
000170 17 47 6c bb 2c 85 d1 bb 5b c3 26 3c 91 09 e8 bb
       -0.0036053115 -0.006394049 0.010178412 -0.0070812185
000180 61 64 25 3e 9b 1f b9 bc 5d e4 e8 3e 78 c8 d3 3e
       0.16151573 -0.022598078 0.45486727 0.41363883
000190 db 29 4a 3d 15 97 44 3c e9 c3 b0 3c 24 fb 0b 3f
       0.049356323 0.011998911 0.021577792 0.54680085
0001a0 e6 ec 3b 3e a0 50 31 3e 11 de 2d 3f 96 f1 e8 3e
       0.18352088 0.17315912 0.6791697 0.45496815
0001b0 01 02 80 3d 24 37 6f 3f 00 d7 55 be ed 29 69 bd
       0.06250382 0.9344351 -0.20882797 -0.05692475
0001c0 4e 6d 39 bd 7f 9d 7a be 85 f1 b1 bd 32 f7 28 be
       -0.045270257 -0.24474142 -0.08688644 -0.16500548
0001d0 fe 89 3f be 8e 98 8d 3c 06 a9 70 be fb 91 86 3e
       -0.18704984 0.017284658 -0.23501977 0.2628325
0001e0 8f ef 28 3e e8 2f 85 3c 1e 1e 35 bb 18 3e d3 3e
       0.16497634 0.016258195 -0.002763636 0.4125831
0001f0 bd bd d8 3d 31 c3 02 3b 0e 27 84 3e 64 d0 b1 3e
       0.10583065 0.001995277 0.25811046 0.34729302
000200 8c 84 8a 3e fb 7a b5 3d 1f 1f 16 3f 60 47 9f 3d
       0.2705425 0.08861347 0.5864124 0.077772856
000210 bf 0d 55 3d 78 35 a0 bc ed de 0b 3d fd 7d 00 be
       0.052015062 -0.019556746 0.034148145 -0.1254806
000220 b8 52 da bd 55 39 12 3e 1c 57 ce be e5 dd 6d bd
       -0.106603086 0.14279683 -0.40300834 -0.058072943
000230 98 80 42 3d 54 32 23 3e 95 6e 31 3b dc fc 05 3e
       0.047485918 0.15937167 0.0027073969 0.1308474
000240 33 23 77 3e 4d ce af 3e 16 0e 12 3e ee e1 bb 3e
       0.24134521 0.34337083 0.14263186 0.36695808
000250 e1 bc a4 3e 9d 30 01 3f 23 58 03 3d 5a 4e af 3e
       0.32175353 0.50464803 0.032066476 0.34239465
000260 1d b4 b9 3e 69 23 82 3e 24 a9 b1 3e cf 41 85 3d
       0.36270228 0.2541764 0.34699357 0.065066926
000270 ae 9e dd 3e ac c4 34 3e 02 5f 75 3e 41 0a d0 3d
       0.43285125 0.1765315 0.23962024 0.10158206
000280 96 d7 a4 3e e7 9c b1 bb 74 3b 09 3b 09 e4 10 3d
       0.3219573 -0.0054203155 0.0020939978 0.03537372
000290 1d cb 82 3e 3e 7a 97 3e fe 5c 1c 3e 58 c0 2e 3c
       0.25545588 0.2958545 0.15269849 0.0106659755
0002a0 ae 8d 8e 3e 17 17 e4 3e 8e 27 de 3e 5c 85 d2 3e
       0.27842468 0.44548866 0.43389553 0.4111737
0002b0 06 20 94 3d d8 16 76 bd 39 d8 52 bd 00 56 f1 3d
       0.072326705 -0.06008038 -0.051475737 0.11783981
0002c0 48 9f 17 3c 5e a1 2f 3e 03 50 3e bd 48 20 81 3e
       0.009254284 0.171514 -0.046463024 0.2521994
0002d0 42 b7 35 bb b0 9d 2d 3e 0d 22 e4 3e 5f c2 ed bd
       -0.0027727638 0.16954684 0.4455723 -0.11609339
0002e0 5e c8 cb 3e 88 17 a1 3d ec d1 da 3e 1b 30 8f 3e
       0.39801306 0.07865816 0.42738283 0.2796639
0002f0 ed 4f e5 3d 26 65 c9 3e fe e6 c4 bd 0f ad f6 bc
       0.11196885 0.39334983 -0.09614371 -0.030111818
000300 d6 2f 7c 3d bb bf 3f 3e 9a e7 4a 3e b5 01 d3 bd
       0.061569057 0.18725483 0.19814911 -0.1030306
000310 e0 9b 50 be 2f 6c b9 3c 19 8b 0c 3e fb 1a 60 3d
       -0.20371962 0.022634594 0.13724937 0.05471323
000320 50 61 bd 3e 81 f0 08 3e 60 b5 64 3e 88 f0 cd 3e
       0.36988306 0.13372995 0.22334814 0.40222573
000330 83 4a 81 bd 1c cf b6 3e cb 9f d6 3d b0 12 b5 3e
       -0.0631304 0.35704887 0.10479697 0.3536582
000340 02 14 6f 3d f4 de ef 3e 1a d3 f6 3c ad 98 51 3d
       0.05836869 0.46849787 0.030129958 0.051170994
000350 db 56 1c 3e 32 13 1a 3e 27 28 a2 3e fe b1 c9 3e
       0.15267508 0.15046385 0.3167126 0.3939361
000360 68 8c af 3e 32 d0 e1 3d 5d cd bb 3e 43 78 66 3e
       0.3428681 0.11026038 0.36680117 0.22506814
000370 ab 6e 45 3e e9 b6 d0 bb 56 76 c1 ba 7e 40 c1 3b
       0.19280498 -0.006369461 -0.0014759998 0.0058975806
000380 47 39 cd 3d 5f 1d c1 bc f4 3c 4d 3e e7 66 00 3f
       0.100206904 -0.023573576 0.20042783 0.50157017
000390 58 bc d7 3e b7 ad 76 3e 91 f6 a5 3e 1c 4b 7e 3d
       0.42135882 0.24089704 0.32414678 0.06208335
0003a0 0c 40 a8 3d 87 2f 7a 3e 04 57 25 bd a4 5a 47 3e
       0.08215341 0.24432193 -0.040366188 0.1946817
0003b0 bf 73 92 3c ac 93 24 be 55 32 c0 bd fc 55 5f 3e
       0.017877458 -0.16071957 -0.093846 0.21810144
0003c0 e1 ae 66 3d ca 29 12 bd 60 fd 61 bd ab 66 7e bc
       0.05631912 -0.035684384 -0.055173278 -0.015527408
0003d0 71 95 04 3e d8 ba a0 3e 79 66 5d 3e b8 2b 33 3e
       0.12947632 0.3139255 0.21621121 0.17497146
0003e0 56 74 17 3f 29 5c 3f 3f cf a0 f8 3c 66 3b e8 3e
       0.5916189 0.7475 0.030350117 0.45357817
0003f0 46 58 e7 3b c2 be 99 3e b8 c0 c6 3d a6 10 c8 3d
       0.0070600836 0.3002835 0.09704727 0.097688004

net.0.bias f4 [32]
000000 c4 98 2e 40 d9 3b 7d 3f 34 26 d2 3f d4 8e 70 be
       2.728074 0.98919445 1.6417909 -0.23491985
000010 a8 89 2c 3f 52 e4 1b 3f 8f 0d ce 3f b1 3d 29 3f
       0.67397547 0.60895264 1.6097888 0.6610976
000020 77 a1 48 3f ef 4d fd 3f 7d 68 2f bf 97 de 08 3d
       0.78371376 1.9789408 -0.6851881 0.033415403
000030 95 d3 b5 3f ee ce 60 40 47 67 de 3e 0e f7 4f 3f
       1.4205195 3.51263 0.4343817 0.8123635
000040 d9 30 02 40 46 88 22 40 df d2 1c 3f 01 ee 14 c0
       2.0342314 2.5395675 0.61259264 -2.3270266
000050 55 e5 e3 3f 91 f4 81 3f 8c 63 16 40 3b 47 1d 40
       1.7804362 1.0152761 2.3498259 2.4574726
000060 ca 1c 00 c0 7b 57 4b 3f 20 6f b4 3f e6 ae dd 3f
       -2.0017571 0.7943036 1.4096413 1.7319
000070 63 a5 27 3f 1e 7d 0f 40 64 57 c6 3f 42 4d 21 bf
       0.65486735 2.2420115 1.549542 -0.6300851

net.2.weight f4 [32, 32]
000000 e3 17 12 3b b6 26 47 3e 7d 16 94 3e 53 43 b5 be
       0.002229207 0.19448361 0.28923407 -0.35402927
000010 84 be 4e 3e 52 11 97 3e 13 f6 ba 3c 5d c7 8e 3e
       0.20189863 0.29505402 0.022822415 0.27886477
000020 6a 5c 21 3d d6 ce e4 3d 59 d6 9b 3e 33 cc ce 3c
       0.039394774 0.11172263 0.30436972 0.025243854
000030 9a cf a3 3d 62 80 90 be f2 64 9e 3e cc 91 9b 3e
       0.07998581 -0.28222948 0.3093639 0.30384672
000040 5a 4f 5d 3e 2e a0 8c bd 30 b9 ba 3e 7c 32 6c be
       0.21612301 -0.06866489 0.36469412 -0.23066133
000050 2d f2 11 3e 0a 46 92 3e 3b 82 80 3e 28 e6 8b bb
       0.14252539 0.2856906 0.25099358 -0.00426938
000060 cc 25 26 be f1 bf 01 bd 3e 6f a5 3d 04 4b 10 3e
       -0.16225356 -0.03167719 0.080778584 0.14091116
000070 39 3f 85 3e bb b3 b3 3c fc 1d cc 3d b9 41 95 3e
       0.26024798 0.021936288 0.099666566 0.29151705
000080 00 b3 27 bb 92 bb 8e 3e cd a7 72 bb 07 dd 07 bf
       -0.002558887 0.2787748 -0.0037026287 -0.53071636
000090 6a 48 16 3e 6d 7b 43 3e 12 73 c8 3d bd 94 9c 3d
       0.14676061 0.19090052 0.09787573 0.07645557
0000a0 c5 09 30 3e ca 9b 71 3e 84 61 5e 3e 1e 06 68 3c
       0.17191227 0.23594585 0.21716887 0.014161615
0000b0 3a f0 53 3e bf c0 45 be 59 48 89 3e b7 52 65 3e
       0.20697108 -0.19311808 0.2681301 0.22394834
0000c0 70 1b 96 3e 2f b2 db bd 3d cb 56 3e 14 68 ca be
       0.29317808 -0.10727345 0.20975967 -0.3953253
0000d0 ce 5f 8d 3e 12 e2 8c 3e 85 7c 6f 3c 82 10 2c bd
       0.27612156 0.27516228 0.01461709 -0.04200793
0000e0 89 56 d9 bd 8c b9 9e 3d 57 6b 20 3e 30 6f 69 3e
       -0.106122084 0.07750234 0.15665947 0.22796321
0000f0 78 07 69 3e cf 3d 8b bd b1 36 50 3e 17 ec 67 3e
       0.22756755 -0.067988984 0.20333363 0.22648655
000100 31 92 b4 bd fb c3 42 3e e0 cf 8f 3c e7 01 9e be
       -0.08816946 0.19020073 0.017555177 -0.30860826
000110 a7 ef a2 3e 45 ef bc 3e 8f c8 6d 3e a4 dc bb 3d
       0.31823465 0.36901298 0.23221038 0.09172943
000120 c9 37 9d 3e 37 2f 6a 3e 8d e7 d5 3d 77 b0 c2 3c
       0.30706623 0.22869574 0.104445554 0.023765786
000130 c6 38 80 3e 0c 97 36 bd ce 42 e0 3d 34 ff ac 3e
       0.25043315 -0.044577643 0.10950242 0.33788455
000140 2b 40 20 be 2c af 36 3d 80 9d 9c 3e 12 da ad be
       -0.15649478 0.04460065 0.30588913 -0.33955437
000150 7b 34 8a 3d eb 55 4e 3e 32 17 65 3d b6 d9 81 bd
       0.06748291 0.20149963 0.055930324 -0.06340353
000160 a6 52 66 be 38 f2 a3 3e 0e 20 1d 3e 9b 5b f3 bd
       -0.22492465 0.32020736 0.15344259 -0.11882707
000170 b1 db 54 3e 7b 3e a7 3d af b8 0e 3e 8c 77 e3 3d
       0.2078693 0.08166214 0.13937639 0.11106786
000180 d9 c8 57 3d 1c 0d 85 3e c3 cb 94 3e c2 f6 ce be
       0.052681778 0.25986564 0.29061708 -0.40422636
000190 41 83 4e 3e b9 b0 0b 3e 06 2d 88 3d 43 cb 76 3e
       0.20167257 0.13641633 0.066492125 0.24100976
0001a0 eb b8 b8 3c 50 7f 30 3c ff dd 09 3f eb 4e 1e bd
       0.022549113 0.010772541 0.53854364 -0.03864948
0001b0 2c e6 9e 3e 8e a5 92 be 9a d9 ca 3e bb f6 ee 3d
       0.31034982 -0.28641933 0.39619142 0.11668154
0001c0 0e 6b b4 3e b9 fa 92 bd 88 ee 7f 3e 2f ef 69 bd
       0.35237926 -0.07176728 0.24993336 -0.05711287
0001d0 c1 f1 da 3d df 9d ea 3e 70 03 1b 3e 28 56 48 bd
       0.10690642 0.4582357 0.1513803 -0.04891029
0001e0 b8 ac 74 3c dc 14 9e 3c 4c 23 21 3e 96 69 3c 3e
       0.0149337575 0.019297056 0.15736121 0.18399653
0001f0 c8 7f 14 3f 83 53 cc bd 47 6b 5a 3e 64 1c 0f 3f
       0.5800748 -0.09976866 0.21329986 0.55902696
000200 e9 15 6c 3e c7 19 ae bc 86 a3 47 3e b0 e8 57 be
       0.23055233 -0.021252526 0.19495973 -0.21084857
000210 d6 9b 26 3e 02 eb 06 be e0 ad e0 bd fd 54 4b bd
       0.16270384 -0.13175586 -0.10970664 -0.049641598
000220 bc de 3a 3d a6 ce c2 3e 25 d7 c6 bd 8a d4 d7 bd
       0.045622572 0.38048285 -0.09709004 -0.105385855
000230 85 1e e9 3c 54 c1 1b 3e 68 1e 24 3d 99 00 05 bd
       0.028456936 0.15210468 0.04006806 -0.032471273
000240 c4 66 96 3e 2e a8 19 3e 3a e8 42 3c 93 03 b0 be
       0.2937528 0.15005562 0.011896187 -0.34377727
000250 f1 b2 3e 3e 7a 8f 62 3e 2f 1a e8 37 5f cb 8d 3e
       0.18622948 0.22125044 2.7668748e-05 0.27694222
000260 b5 5c 2c bf 93 de 56 3d 70 79 91 3c e9 be 3e 3e
       -0.6732896 0.052458357 0.017758101 0.18627514
000270 42 45 2c bd 6c 73 6b 3e cb 09 54 3e c7 4f 81 be
       -0.042058237 0.22993249 0.2070686 -0.25256178
000280 9e 21 be 3e 9a 3f 78 3e ae 0c b7 3d e9 ab a6 3c
       0.37135023 0.24243012 0.08937965 0.020345645
000290 39 19 d6 3d 29 6a 70 3e 29 17 9e 3d 7c 42 11 3e
       0.104540296 0.23477997 0.07719261 0.14185518
0002a0 19 18 11 3d 31 1d 94 3e 79 45 0f be d1 44 77 3c
       0.035423372 0.2892852 -0.13991345 0.015092091
0002b0 f3 50 94 3d 90 8a 03 bd 6d 89 aa bd 7a ff 2d bd
       0.07242002 -0.032114565 -0.08326993 -0.04247997
0002c0 a0 6c 5a 3e b7 92 93 3e 17 f8 9f bc a8 b9 61 be
       0.213305 0.28822872 -0.019527478 -0.22043478
0002d0 14 1e 31 3d e5 9d f4 3d 98 0d da 3d ab 70 b3 3e
       0.043241575 0.119441785 0.10647124 0.35046896
0002e0 8b 4e 18 bf f8 13 6a bd 0e 6f 60 3d a1 92 3e 3c
       -0.5949485 -0.05714795 0.05479341 0.011631639
0002f0 2c 9e a1 3d 95 3a 91 3e a4 a6 2f 3e 9c 83 a3 be
       0.07891497 0.28365007 0.17153412 -0.31936347
000300 91 ae d5 3e a3 8c c6 3d fd ad 55 3e 4c 5a 71 3d
       0.41734746 0.09694793 0.20867153 0.058924004
000310 16 6c 9c 3d 83 6b a6 bd d8 df 53 3e 56 c6 91 3c
       0.07637803 -0.08125975 0.20690858 0.01779477
000320 08 e6 c3 3d 6d e4 bd 3e bb 31 dc 3d 06 22 25 3c
       0.09565359 0.37088338 0.10751673 0.010078913
000330 2b ad 2b 3e a2 cc 81 3e a6 d2 6a 3d 3e 2b 34 3e
       0.16765277 0.25351435 0.057329796 0.1759462
000340 14 fb ad 3d 14 58 b7 3e 5b 1a c1 3d 0e 74 50 be
       0.08495155 0.35809386 0.09428855 -0.20356771
000350 78 bb 98 3e e8 e6 44 bd 1d 9d a1 3e 01 55 8a 3e
       0.29830527 -0.04807177 0.3156518 0.27017978
000360 6f e6 d6 be 0b df 4e 3e fd 56 83 3e 1c 32 6a 3e
       -0.41972682 0.20202272 0.25652304 0.22870678
000370 da e3 42 3e 38 21 27 3e 75 86 93 3e d1 9c ae 3d
       0.19032231 0.16321266 0.2881352 0.08526004
000380 ca ad 41 be e5 1a 60 bd 32 47 70 3d 82 c9 a9 be
       -0.18913952 -0.05471315 0.058661647 -0.3316155
000390 67 ec 06 3e 27 7b 94 3d 9c 5f 80 3e c3 cf 50 3e
       0.13176118 0.07250052 0.25072944 0.20391755
0003a0 5f 7f 57 3e 8a d4 8c 3e 70 c6 c7 3d 55 a5 02 bd
       0.21044682 0.27505904 0.09754646 -0.031895954
0003b0 1c c5 91 bd 77 9f 11 be c5 85 cc 3d e7 ff 1f 3e
       -0.07117674 -0.14220987 0.09986452 0.15624963
0003c0 87 10 7a bc 63 ef 34 3e 0c bf 87 3e 82 51 58 bd
       -0.0152627295 0.17669444 0.26512945 -0.052812107
0003d0 12 9a 59 3d 52 68 be 3e d1 7c 81 be a1 5e ad bc
       0.05312545 0.37188965 -0.2529054 -0.021163287
0003e0 51 6d 06 be c3 85 73 3e 62 75 8c 3e c3 c2 06 3e
       -0.13127638 0.23781495 0.27433306 0.13160233
0003f0 c4 f4 9f 3b c0 fa 1b 3e 6c 31 a1 3e d2 20 6a 3e
       0.0048814733 0.15232372 0.31483018 0.22864082

net.2.bias f4 [32]
000000 0e ce 8a 3d 7a df 2f 3f 50 e1 c5 3e 9a b1 7c be
       0.06777583 0.68700373 0.38648462 -0.24677125
000010 78 a9 1c 40 a5 7c 1f 40 81 2c 12 40 d6 c4 18 3f
       2.4478436 2.4919827 2.2839663 0.5967535
000020 cd e2 d8 be 97 4b c9 3f 17 cf c7 3f 46 ff 66 3f
       -0.42360535 1.5726193 1.5610074 0.90233266
000030 ae 92 36 40 b1 5c 34 40 79 41 47 40 55 29 3b 40
       2.8527026 2.8181574 3.1133711 2.9243977
000040 44 79 0f 40 82 6f 67 3f 55 81 02 3d 4b b2 5c be
       2.2417765 0.9040452 0.031861622 -0.21552388
000050 b1 bc a6 3d 7b 95 c9 3f bf 62 cc 3f 8f 75 27 be
       0.08141459 1.5748743 1.5967635 -0.16353439
000060 d4 cd 92 3f 68 5b 10 40 d0 9c 38 bd 7d 1f 29 be
       1.1469064 2.255579 -0.045071423 -0.16515918
000070 8c 2a e1 3e 29 c6 b0 bf b6 39 86 3d 30 73 8c 3e
       0.43977773 -1.3810474 0.06553976 0.2743163

net.4.weight f4 [32, 32]
000000 d0 1e cb bd 78 20 9b bd db e8 57 be d4 7f 23 be
       -0.099179864 -0.07574552 -0.21084921 -0.15966731
000010 0c dc c5 3e 07 b9 0d 3f 54 07 bf 3e 52 be a7 bd
       0.38644445 0.55360454 0.37310278 -0.081905976
000020 9b 71 9f be 15 b4 9a 3e b6 5a ad 3d ef e7 b5 3d
       -0.31141362 0.30215517 0.08464567 0.088821284
000030 a1 29 9a 3e 42 c4 15 3f 0c d6 1f 3f f9 5d 18 3f
       0.30109885 0.5850259 0.62435985 0.5951839
000040 01 b5 de 3e 6f a8 fd 3d 58 33 9a 3d f2 f6 0f be
       0.4349747 0.12385642 0.07529324 -0.14059046
000050 f8 fd 86 be ad 89 50 3e 41 e4 7b 3e 9e ad f1 bd
       -0.26365638 0.20365019 0.2459879 -0.11800693
000060 d4 90 3d 3e df 78 8b 3e 3f b2 1a 3e 69 b4 8d bd
       0.18512279 0.27240655 0.15107058 -0.06919176
000070 5a 96 01 be 8e e7 7c be 4c 76 5d bd e7 1d 05 be
       -0.12655011 -0.24697706 -0.054067895 -0.12999688
000080 82 63 3d 3e c8 ee 70 3e d7 d6 31 3e 5b 46 e8 3d
       0.1849499 0.23528588 0.17367111 0.11341544
000090 bb 02 01 3e f2 72 1d bd 1b c6 72 bd 8d 53 44 bc
       0.12598698 -0.0384397 -0.05927096 -0.011982811
0000a0 48 02 1a 3d 86 d0 b3 3d de 0a 10 3e ff 8e c0 3d
       0.03759983 0.08780007 0.14066646 0.09402274
0000b0 4e ac 3f bd 5e a5 5e 3e ba 77 5b 3d 11 b8 f5 3c
       -0.046795182 0.2174277 0.053580977 0.029994996
0000c0 d5 ba 80 3e a3 68 41 3e 96 cc 1e be 6d ea 16 bd
       0.25142542 0.18887572 -0.15507731 -0.03684466
0000d0 05 70 a9 3e 16 db 9c 3e ea d4 8e 3e 5c 3b d6 3d
       0.33093277 0.306359 0.27896816 0.10460541
0000e0 2b d2 f6 3c e7 04 8c 3e 5c 30 0d be ab 45 eb bc
       0.030129513 0.2734749 -0.13787979 -0.028719744
0000f0 60 a4 88 3e 1b ae 4e 3e 2f 0d da 3d 51 be 8e 3e
       0.26687908 0.20183603 0.10647046 0.27879575
000100 24 2e 3c 3d 14 99 21 3d ea 45 e6 bd 1f 87 27 be
       0.04594244 0.039452627 -0.11243804 -0.16360138
000110 23 72 b1 bd e7 d3 9b 3d 24 96 a1 bc 63 96 ba bc
       -0.08664348 0.076087765 -0.019724913 -0.022776788
000120 ae e2 09 be 68 32 48 be b0 ec 57 bd f2 2c 24 be
       -0.13465378 -0.19550478 -0.052715957 -0.1603277
000130 5d fa 82 bd f9 12 dc bd 32 23 1d 3e 81 ff 42 be
       -0.06395409 -0.10745806 0.15345457 -0.1904278
000140 40 f7 60 bd 22 49 f2 bd ce 39 d7 3d fb 79 ba bd
       -0.054923296 -0.11830355 0.10509072 -0.09105297
000150 4b fc f8 3d 65 08 09 3e 2d de 09 be 00 8c f3 bd
       0.12157496 0.13382109 -0.1346366 -0.11891937
000160 bd 7b 3f be 87 bf 80 3c 57 5b af bd 2a 2b ff 3d
       -0.18699546 0.015716327 -0.085623436 0.12459405
000170 06 f0 76 bd 66 ca d8 bd d3 90 13 bb e9 aa 15 3e
       -0.060287498 -0.105854794 -0.0022516742 0.14615978
000180 9b 5e 50 be 94 31 b2 3d ff b2 3d bd e0 1e cf bc
       -0.20348589 0.087008625 -0.046313282 -0.025283277
000190 f5 40 bb 3e f7 41 13 3f 84 ca 4e 3e 84 52 b0 bd
       0.36572996 0.5752253 0.20194441 -0.086094886
0001a0 02 f5 c6 bd d6 5c 82 3e 5f fa 6a 3e 1f e7 a3 3d
       -0.097147 0.25461453 0.22947071 0.08003067
0001b0 2e 1b 08 3f b0 ac 25 3f 94 28 b0 3e 28 b1 a3 3e
       0.5316647 0.64716625 0.3440596 0.31971097
0001c0 e7 9d 25 3e 25 a6 ba bd a3 41 3c 3e 6c 8b ce bd
       0.16173516 -0.09113721 0.18384413 -0.10085186
0001d0 4c 1c 4a 39 c9 fe ad 3e 88 14 dd 3d 38 53 2f bd
       0.00019274763 0.33983448 0.10794932 -0.042803973
0001e0 b5 2f 7c 3e 9a 0c e0 3e 77 1f d1 3c 0c 8b 30 3d
       0.24627574 0.43759614 0.025527699 0.043101355
0001f0 79 48 fd bd 48 fc c5 be cb 12 0a be dc 2c 10 be
       -0.12367339 -0.38669038 -0.13483731 -0.14079612
000200 b6 62 c0 bc 0e 58 2e 3e 3b d7 84 3e 69 6c 80 3d
       -0.023484569 0.17025778 0.25945458 0.062706776
000210 1e ce b2 3e d0 11 b3 3d 6a a9 0f 3e e4 26 78 3d
       0.3492288 0.08743632 0.1402947 0.060583964
000220 78 9f be ba 84 d2 a3 3d e2 bf 63 3e d0 15 1d 3e
       -0.0014543375 0.07999137 0.22241166 0.15340352
000230 e3 4e b6 3e e5 81 51 3e 51 e4 25 3e db 37 f4 3d
       0.3560706 0.20459707 0.16200377 0.11924716
000240 cf ff b9 3d 0b 09 89 3e 75 b1 cb 3d a9 4f 3d 3d
       0.09081995 0.26764712 0.099459566 0.046218548
000250 15 60 92 3d 41 c3 a8 3e 16 7e 56 3e 3b 33 b4 3d
       0.071472324 0.32961467 0.20946535 0.08798834
000260 0d 16 99 3e a7 63 02 3e 56 52 da bd 60 aa ef bc
       0.29899636 0.12733327 -0.106602356 -0.029256046
000270 f7 69 00 3e 92 4e 90 bd d6 73 00 be 47 73 94 3d
       0.12540422 -0.07046236 -0.12544188 0.0724855
000280 91 12 04 3c 1d d7 dd bd c3 57 99 bd 32 54 8b 3d
       0.008061067 -0.10832045 -0.07487442 0.06803168
000290 53 c5 72 39 ce 89 03 3e 93 6a 88 bd 72 1d 86 3b
       0.00023152427 0.12845537 -0.066609524 0.0040928656
0002a0 c8 47 cb bd d2 69 a4 3c 16 36 2a be 10 fd 48 be
       -0.099258006 0.02006999 -0.16622195 -0.19627786
0002b0 16 8a f9 3d 17 1b 1e be c5 fb 0e 3e e1 ef 72 bc
       0.12184541 -0.15440021 0.1396323 -0.014827699
0002c0 e5 0b 22 be 5b 3b 02 be 56 41 8c 3c 19 b9 16 be
       -0.1582485 -0.12717955 0.017120998 -0.14719047
0002d0 46 b7 91 bb 70 31 bd 3d fa 7d c7 3d ac 9a 97 3d
       -0.0044468967 0.09237945 0.09740825 0.07402548
0002e0 ee e2 19 be 24 a7 a1 3c 25 e3 1c be f0 88 10 be
       -0.15027973 0.01973302 -0.15321024 -0.14114738
0002f0 52 3a 3d be 1f 84 0c 3e c3 be ec 3d 83 06 ac bc
       -0.18479279 0.13722275 0.115598224 -0.020999199
000300 f3 66 b3 3d 73 3f e6 bc 5e 2a 1b be 8f 8b 84 bd
       0.087598704 -0.028106427 -0.1515288 -0.06471931
000310 05 c5 1b 3e 38 79 b6 3d c8 7f c7 bd fe e8 17 3d
       0.15211876 0.089098394 -0.09741169 0.037087433
000320 6e d8 33 be 04 c3 19 3e 8c 1b 04 3d c7 92 bc 3d
       -0.1756303 0.15015799 0.032252833 0.09207683
000330 95 10 9c bd f7 77 13 bd 10 65 2a bc dd 56 10 be
       -0.0762035 -0.03600308 -0.010400072 -0.14095636
000340 e9 d5 e3 3d 42 f7 2b be a7 c4 07 3e 74 23 89 bd
       0.111247845 -0.1679354 0.1325861 -0.06696215
000350 85 67 75 3d a3 9e 78 bd bd 6f 21 bd 14 21 20 3d
       0.059913177 -0.060698163 -0.039413203 0.039094046
000360 cd 3c 3f 3d cf 5c 18 be 2b 25 e7 bb c1 18 30 bd
       0.046688844 -0.14879154 -0.0070539913 -0.042992357
000370 97 65 09 be f9 a4 2a be 34 15 95 bd 6e e5 0c be
       -0.1341766 -0.16664495 -0.07279435 -0.13759395
000380 a1 7d 31 3e a2 87 8e 3d 5f 66 8b bc 77 1f 62 3e
       0.1733308 0.06959464 -0.017016588 0.22082315
000390 e3 57 83 bd e6 90 8b be ce 7a 19 be 11 50 d2 bd
       -0.064132474 -0.27258986 -0.14988253 -0.10269178
0003a0 b4 99 65 be 70 e2 69 bc 60 a5 22 be c3 ee 96 bd
       -0.22421914 -0.014275178 -0.15883398 -0.07369759
0003b0 72 b6 6b be a5 8b 49 bd 42 9e 04 3f e9 e9 36 be
       -0.23018816 -0.04920544 0.5180398 -0.17862667
0003c0 25 7b 94 bd fc 92 1d 3e 81 86 17 3e 4c d6 7a bd
       -0.072500505 0.15388101 0.14797403 -0.061239526
0003d0 71 20 2d 3d 1d 22 e6 3c a7 8e cb bd cd f1 a1 bc
       0.042267267 0.028092438 -0.09939318 -0.01976862
0003e0 e4 45 81 3e 6b 2c 04 3e 36 0f e4 bd e7 bd d4 bd
       0.25248635 0.12907569 -0.11135714 -0.103877835
0003f0 8b b4 de 3d 47 8b 1b 3f 3f dc 73 3d c6 07 4d 3e
       0.108742796 0.60759395 0.059536215 0.20022497

net.4.bias f4 [32]
000000 dc ba 7c 40 0d b6 6c 3f a3 c5 0f 3e c1 44 54 40
       3.948905 0.9246529 0.14040236 3.3166964
000010 9e dd ca 3f 26 85 35 be fc a2 a5 bc 85 40 06 40
       1.5848882 -0.17726573 -0.020219319 2.097688
000020 bd 6a 1d 3e 65 54 14 bf e6 1e 20 be 7d 29 8a 3e
       0.15372749 -0.57941276 -0.15636787 0.26984778
000030 0c fd 2d 40 c1 cd 92 3e f9 7c a2 be fa c2 0f 40
       2.7185698 0.28672603 -0.31735972 2.2462754
000040 d4 1a c9 3f 7f 75 7b 3f f5 4e 3a bf 6d b3 dd 3f
       1.5711312 0.9822616 -0.7277673 1.7320381
000050 5c 8b aa 3f 96 7c d8 3e ab 90 da 3f 50 36 0e 3d
       1.3323779 0.42282552 1.7075399 0.034719765
000060 a7 0a 7b 3f 52 b6 ab be 6a ec 46 c0 22 0e 81 3f
       0.9806313 -0.33537537 -3.1081796 1.0082438
000070 dd d8 2b 40 08 17 74 3f 84 f0 f4 3d 13 34 28 40
       2.6851113 0.9534764 0.11959937 2.6281784

net.6.weight f4 [16, 32]
000000 68 b2 7a be f5 d4 e4 3d e9 03 cc bb 26 d5 81 be
       -0.24482119 0.11173431 -0.006226052 -0.25357932
000010 13 ba 1f 3e 94 94 5a 3d 66 4f 97 bd 50 bb 0a bf
       0.15598325 0.05336435 -0.07388191 -0.54192066
000020 a3 1a 44 3d be 37 96 3e 15 be 92 bd b7 ee a8 3e
       0.047876965 0.29339403 -0.071651615 0.32994625
000030 2b 6f c0 bd 9e 63 5e 3e 46 26 bd 3e 97 79 92 3d
       -0.093962036 0.21717688 0.36943263 0.07152098
000040 86 d6 03 3e 54 34 c0 bd 1c 87 8c 3e f8 dd 18 3e
       0.12874803 -0.09384981 0.2744683 0.14928424
000050 81 25 92 3e e7 66 cf 3d 1f cf 4f bd 9a 76 4d 3d
       0.28544238 0.10127049 -0.050734635 0.050161935
000060 11 b3 cf bd b8 a4 75 3e ea 3a cb 3e 60 21 47 3e
       -0.10141576 0.23988616 0.39693385 0.19446325
000070 0d 73 d4 bd 15 59 a1 3d ca 0e fb bd 7b 79 fb bc
       -0.10373507 0.07878319 -0.1225868 -0.030697575
000080 19 3f d3 bd 30 b5 91 3c 27 19 b5 bd 40 81 53 3d
       -0.10314769 0.017786592 -0.08842688 0.051636934
000090 70 52 0f 3e b2 66 66 3c f8 37 5b 3c 3c bd 1c bd
       0.13996291 0.01406257 0.013380043 -0.038266405
0000a0 ba 68 0a be 62 81 77 3e a5 c3 9a 3e 26 3c 63 3d
       -0.13516513 0.2417045 0.3022739 0.055477284
0000b0 8e 10 c3 3d 60 41 84 3e d5 a8 6e 3d 46 cd cd 3c
       0.09524642 0.25831127 0.05826648 0.025122296
0000c0 2f b3 47 3e bc 31 70 3e 11 34 40 3e e9 0f 7d 3c
       0.19501947 0.23456472 0.18769862 0.015445688
0000d0 c4 98 4e 3e 37 85 3e 3e b7 0c 87 bd b7 3c 84 bd
       0.20175463 0.18605505 -0.06594222 -0.06456893
0000e0 db ec b6 3d 4a d9 91 3e 55 b4 a3 bd 4b 31 7b 3e
       0.08931895 0.2848609 -0.0799338 0.24530523
0000f0 53 a2 a2 3d 69 0f 4e 3e 50 c3 1c 3c 6f e8 03 3c
       0.07941117 0.20123066 0.0095680505 0.008051022
000100 07 0e 59 be 69 27 a0 3e dc f4 8f 3d 9a 1e 54 be
       -0.21196757 0.31280068 0.07029125 -0.20714799
000110 91 f8 ee bd 10 81 00 3e c0 c4 34 be 4a d2 12 bc
       -0.11668504 0.12549233 -0.17653179 -0.00896127
000120 a5 d4 38 bd 5a 56 96 3e 1f 19 98 3e 51 e5 c3 3d
       -0.04512467 0.29362756 0.29706666 0.09565223
000130 2a 6f ce 3d 40 7c e7 3d c3 b8 7b bd c0 b1 01 be
       0.100797966 0.11302996 -0.0614555 -0.12665462
000140 b9 0c cc bc 15 49 90 3e 29 5c b6 3e b0 dd 23 3e
       -0.02490841 0.28180757 0.35617188 0.16002536
000150 65 8c 62 3a d9 ab f3 3d e8 7f 00 3e 29 d7 4b bc
       0.0008642136 0.11898012 0.12548792 -0.012441435
000160 5c 4c 6f 3e e9 7b 60 3e 13 2f 49 3e 6e 2e 90 3d
       0.23368973 0.21922268 0.19646864 0.07040106
000170 e4 d3 09 3e a4 ff 82 3e 1a c4 80 3d af 9d 1a 3d
       0.13459736 0.25585663 0.062874034 0.037748035
000180 1a cd 0c bd 38 ea e4 bd 79 1b ea 3c 6c a4 b7 bd
       -0.034375288 -0.11177486 0.028577553 -0.08966908
000190 99 e3 f0 3a 06 1d 20 be 89 a3 94 bc 47 3b bd bc
       0.0018378376 -0.15636072 -0.018144386 -0.023099555
0001a0 47 1d b7 3d 6a 28 b2 3d 22 c2 f6 bd 28 82 be bd
       0.08941131 0.086991146 -0.12048747 -0.09302169
0001b0 6c 37 64 bd d1 ee 42 be 1b f4 fa 3d 9b d8 36 3d
       -0.055716917 -0.19036414 0.12253591 0.044640165
0001c0 8c de ec bd f3 e4 3b 3d e6 46 84 bd 26 48 4b 3d
       -0.11565885 0.04587264 -0.06458835 0.049629353
0001d0 f4 7d 0d bd b8 17 1b 3e ce 46 d6 3d c2 d2 15 bc
       -0.034543946 0.15145767 0.10462724 -0.009144487
0001e0 0c 95 22 be cb c6 62 bc 03 94 cf 3d b1 e2 34 be
       -0.1587717 -0.013841341 0.10135653 -0.17664601
0001f0 b4 a0 2a bd d7 bf 0c 3e ad 84 90 bd ae 34 a6 3d
       -0.041657165 0.13745056 -0.07056556 0.081155166
000200 91 09 89 3e 4c 98 89 3d 9d 8a 84 3c 4d fa ad 3e
       0.2676511 0.067185014 0.016179377 0.33980027
000210 fc f0 31 3e 8c 2d 71 bd b4 0b 95 bd 07 29 99 bd
       0.17377084 -0.058881328 -0.07277623 -0.074785285
000220 74 b4 87 3d 84 d5 9e bd b0 eb 6d 3e af 2c e6 bd
       0.066262156 -0.077555686 0.23234439 -0.112389915
000230 97 33 40 3e d6 65 08 3e 77 ce a6 be 47 dc 9c 3c
       0.1876968 0.13320097 -0.32579395 0.019148005
000240 36 cf aa 3d 6b bf 01 be 5a 22 a6 be 69 18 22 be
       0.083403036 -0.12670676 -0.32448083 -0.15829624
000250 19 c0 91 be 93 aa 97 bd 9e e1 43 bd 9e cc c2 bd
       -0.2846687 -0.07405581 -0.047822587 -0.09511684
000260 b9 a9 33 3e 45 8b 08 bd 06 0e 14 be 44 dc f8 3d
       0.17545213 -0.033335943 -0.14458475 0.12151387
000270 81 0c d9 3d 3d 72 4b 3e f5 54 19 be e0 b9 dd 3c
       0.10598088 0.19867797 -0.14973815 0.027066171
000280 0d 85 03 be 60 75 78 bd e8 cd 86 bd 0c e7 35 be
       -0.12843724 -0.060658813 -0.06582242 -0.17763919
000290 24 7b 2e 3d b1 aa 1d be 2d ad 78 3c ff c0 b6 3c
       0.042597905 -0.15397145 0.015178007 0.022308825
0002a0 a6 11 43 3b 5e 06 2d bd 21 00 9f bd 93 96 0d 3e
       0.0029765158 -0.0422424 -0.077636965 0.13826971
0002b0 83 05 2c bd b5 e6 b3 39 1f 53 8f 3d be fc a8 bd
       -0.041997444 0.0003431343 0.06998276 -0.08251332
0002c0 41 48 f4 3d 65 0c 94 3c a6 c2 37 be a5 d4 01 be
       0.11927844 0.018072316 -0.17945346 -0.12678774
0002d0 b0 87 6f bc bf 2f 9e 3d 36 00 6f 3d 94 c2 ea 3b
       -0.014619753 0.077239506 0.05834981 0.007164309
0002e0 53 00 3a 3d 73 2a 1d 3d dc cc dd bd 17 30 36 bd
       0.045410465 0.03837056 -0.108300894 -0.044479456
0002f0 a0 ec 97 bd df 2c b0 bd 5d 55 14 be 89 a8 e9 bd
       -0.074181795 -0.086023085 -0.14485689 -0.11409099
000300 04 b1 f6 3e 46 3d 6e 3e fa 7c c4 bd 10 09 dc 3e
       0.48181927 0.23265561 -0.0959415 0.42975664
000310 ce 86 8c 3e 74 d9 cc bd 06 ff 16 be 05 19 41 be
       0.27446598 -0.100024134 -0.14745721 -0.188572
000320 42 ef 65 3d 40 4e 24 be 63 01 48 be d0 28 1b ba
       0.056136377 -0.16045475 -0.19531779 -0.00059188623
000330 9f 1c ba 3e dc 9f ea bd d1 73 6c 3e 7b 08 90 3e
       0.3634996 -0.11456272 0.23091055 0.2813147
000340 d6 cd 0c 3e 16 7e d8 bb b7 80 82 bd 70 d8 a2 3e
       0.13750395 -0.0066068275 -0.06372207 0.31805754
000350 08 13 d0 3e f3 a5 e0 3d 94 29 c4 3e 1d 95 36 3d
       0.4063952 0.10969152 0.38312972 0.0445758
000360 7c 5a ab bc ce 5c df bd 69 87 4a bc e2 a2 72 3e
       -0.02091717 -0.10906373 -0.012361386 0.23694947
000370 84 fc d3 3e 09 c8 7d b9 34 e2 a1 bc f5 3b e0 3e
       0.41403592 -0.00024202479 -0.019761182 0.43795744
000380 c3 d9 91 3d 56 55 b3 3e 5e 0b 24 be 2b 53 8e 3e
       0.07121613 0.35026044 -0.16019961 0.27797827
000390 e7 99 94 3e 2b 71 4c 3d 26 f3 95 bd f1 b6 c1 be
       0.29023668 0.049912613 -0.073217675 -0.37834886
0003a0 00 37 a8 bd 92 f5 1c 3e 4d 95 af 3c e8 48 c6 3e
       -0.082136154 0.15328053 0.021433497 0.38727498
0003b0 4f d8 32 3e 6a 51 b4 3e 46 79 ae 3e c9 d6 8a 3e
       0.17465328 0.35218364 0.340769 0.27116993
0003c0 49 76 38 3e dc c1 a7 3d be ec f1 3d 55 3c 6f 3e
       0.18013872 0.081912726 0.11812733 0.23362859
0003d0 ab cb e2 3d 4f 84 c9 3e 68 d6 ca 3e 8a 71 f8 3d
       0.11074003 0.39358756 0.39616704 0.12131031
0003e0 d4 e1 9a 3e f1 38 1a 3d 38 a6 97 bd 1a 85 55 3e
       0.30250418 0.03765196 -0.074047506 0.20851555
0003f0 de 65 89 3e 9a 8e 34 3d 6f ef a8 bd 03 aa 8d 3c
       0.2683553 0.044081308 -0.08248793 0.017292982

net.6.bias f4 [16]
000000 7d c8 78 c0 87 cf 83 3e da 88 b2 be ca 38 b7 3d
       -3.8872368 0.25744268 -0.34870034 0.089463785
000010 35 60 ed 3f fd 73 b4 3c ca 5e 30 40 c1 ae 88 3f
       1.8544985 0.022027964 2.7557855 1.0678331
000020 92 87 01 be 82 87 11 bf 9c e5 73 3f 88 74 23 40
       -0.12649372 -0.56847394 0.9527223 2.5539875
000030 1d ec c7 3d 86 ca 45 40 24 cd 47 bd db 0e 83 3e
       0.09761832 3.090486 -0.04877962 0.2559727

net.8.weight f4 [10, 16]
000000 0b 5b f3 be 3c c1 54 3e a0 3a 26 3d 30 9c c3 bd
       -0.47530398 0.20776838 0.040583253 -0.09551275
000010 56 9d 44 bd e0 3e 01 3e e3 16 f9 3e c9 3b b8 3e
       -0.04800161 0.12621641 0.48650274 0.35983112
000020 9c 45 80 3e 08 1c 20 3e ce 22 a7 3d ad 98 33 3e
       0.25053108 0.15635693 0.08160935 0.1753871
000030 b6 a0 49 be bd b1 24 3f 37 ac 55 3d e9 97 89 3e
       -0.19690213 0.6433371 0.05216619 0.2687371
000040 88 b5 78 be 0b da 4a 3e cf 2f 9e 3e 8a 49 3a be
       -0.24287999 0.1980974 0.3089585 -0.18192115
000050 44 9b 8a be 1a 9b 13 be 32 30 ca 3e 20 d6 1b 3c
       -0.27071583 -0.14414635 0.39489895 0.009511501
000060 64 0e c8 3d bf 3b 9d bd 9b 37 82 3e 81 70 bd 3e
       0.0976837 -0.07677411 0.2543305 0.36999896
000070 12 15 10 be 99 2c de 3e 01 7f 48 bd 09 3d 17 3e
       -0.14070538 0.433934 -0.048949245 0.14769377
000080 61 ab 1b bb 1a df c0 3c 99 2d 7b 3d 9e df 5d be
       -0.0023753273 0.023543883 0.061322782 -0.21667334
000090 0b 18 3f bf fb a7 45 bd de 81 cc 3e 2f aa c0 3e
       -0.7464606 -0.0482559 0.3994283 0.3762984
0000a0 89 41 78 3d f7 9d 36 3d 74 ed 57 3e 39 c6 aa 3e
       0.060609374 0.04458424 0.21086675 0.33354357
0000b0 b4 84 36 3e 44 f8 a5 3e 01 ff 52 be 47 0a 9f 3e
       0.1782406 0.32415974 -0.20605089 0.31062528
0000c0 75 35 65 3e d5 30 da 3e a3 a2 97 3e 68 62 5b 3e
       0.22383673 0.4261538 0.2961627 0.21424258
0000d0 d6 a1 ba be 91 b1 4b 3d 41 8e b3 3e 4f e6 ba 3e
       -0.36451596 0.049729887 0.3506947 0.36503837
0000e0 0e 7a fc 3d 64 2c 54 be 95 3a 4c 3e 5b 9f f9 bd
       0.123279676 -0.20720059 0.19944222 -0.12188598
0000f0 80 68 d8 3d e1 d2 bf bc 7a 82 4b be 5f f0 a1 3e
       0.10566807 -0.023415985 -0.19873992 0.316287
000100 f7 91 10 3e c3 57 96 3d 29 9a 21 3e c7 db 20 be
       0.14118181 0.07340958 0.15781464 -0.15708838
000110 fd 6a 5d bc be 97 3c 3e 70 c8 25 be 60 b4 eb 3e
       -0.0135142775 0.1841726 -0.16189742 0.46036053
000120 e1 2a ee 3e dc ed f5 3d 32 52 cc 3d 5b 5f 17 3e
       0.4651709 0.12008259 0.09976615 0.14782469
000130 bc c1 01 be e5 10 46 be 21 d1 60 3e de b9 b7 3e
       -0.1267156 -0.19342382 0.21954776 0.35883993
000140 ae 6f 2f 3e ed d4 b6 3e 3d b4 dd 3e 31 44 8f bb
       0.17132446 0.35709324 0.43301573 -0.0043721427
000150 a0 ae 70 be 58 db de bd 31 31 d7 bc 5c 81 45 bd
       -0.23504114 -0.1088168 -0.026268573 -0.04821907
000160 3f 5d 3a 3e cc 7e a5 3e a8 72 40 3e 37 ba 68 be
       0.18199633 0.323233 0.18793738 -0.22727285
000170 cc 29 ff bd 5c 44 41 3d 93 8a 71 be 31 3e 93 3e
       -0.12459144 0.047184333 -0.23588018 0.28758386
000180 8a 30 9f 3e f2 b2 f0 3d 4a 30 5b 3e 29 c2 87 3e
       0.3109172 0.11752881 0.2140514 0.2651532
000190 f2 8e 11 be 6f 3d 32 be 88 b7 c9 bd c3 9a 43 bd
       -0.14214686 -0.17406248 -0.09849459 -0.047755014
0001a0 88 d0 9d 3e d2 e5 e1 3e 31 8c e2 bd 28 d5 0c bd
       0.3082316 0.4412065 -0.11061896 -0.03438297
0001b0 98 30 1d be 3a 24 d8 3c 76 31 fa 3d b2 27 2e 3e
       -0.15350568 0.026384462 0.12216465 0.1700733
0001c0 c3 e2 e4 bd b2 0d 73 3d 9f 66 8d 3d 25 25 7f 3e
       -0.11176064 0.059339233 0.06904339 0.24916513
0001d0 f5 da 18 3f 6c dc 2f bc 9d ea 75 be 71 81 bb bd
       0.597091 -0.010733705 -0.24015279 -0.09155548
0001e0 61 be 76 3e 75 51 f8 3e 53 06 16 3e 0c f1 a6 3d
       0.24096061 0.48499647 0.1465085 0.08151445
0001f0 6f f7 b2 3d b3 57 4d be 53 f4 ff bc ca 04 c0 3d
       0.087386005 -0.20052986 -0.031244433 0.093759134
000200 c4 02 ad be a3 d1 d2 3d d9 80 1f 3e 1a 45 82 bd
       -0.33791173 0.10293891 0.15576495 -0.06360836
000210 f4 b5 82 bf e3 93 5b be 40 42 bc bd fe a1 e4 3c
       -1.0211778 -0.21443133 -0.09192324 0.027909275
000220 87 9f 92 bd 8f f5 06 3f a7 60 30 be 64 88 11 3e
       -0.07159334 0.5271844 -0.1722437 0.14212185
000230 e0 f4 a5 3d 7f 2b c8 3e 28 24 61 be 88 28 f0 bd
       0.08103347 0.39095685 -0.21986449 -0.11726481
000240 90 53 9a 3c f1 84 a3 bd 50 d9 df 3d 12 db d6 bd
       0.018838674 -0.07984341 0.10930121 -0.10491003
000250 a9 e9 4f be f2 02 85 3e 77 ab a8 3d 23 84 e8 bd
       -0.20303978 0.2597881 0.08235829 -0.11353328
000260 71 98 9e bd f9 3c 18 3e 8f 6e d3 3d b0 16 7b 3b
       -0.0774392 0.14867009 0.10323822 0.0038313083
000270 c8 b5 a2 3c 21 9c 77 3d f4 a6 2b be 9a 53 a5 bd
       0.01986207 0.06045163 -0.16762906 -0.08072586

net.8.bias f4 [10]
000000 62 6a 84 40 4e c0 17 40 aa bf 51 3f 5b 17 37 be
       4.137986 2.3711123 0.8193308 -0.17880003
000010 9f 28 d6 bf 95 28 1b c0 ea de 07 c0 c0 ce 74 bf
       -1.6731147 -2.424352 -2.1229806 -0.95627975
000020 22 ec 98 bf 94 cc 21 bf
       -1.1947062 -0.63202786

exp_avg f4 [32, 10]
000000 23 e8 83 c3 b5 9f 5f 44 e6 b0 06 c3 c4 c3 48 c2
       -263.81357 894.4954 -134.69101 -50.191177
000010 25 b5 48 c3 75 68 8d 40 32 91 66 41 84 99 e7 c0
       -200.7076 4.419001 14.410448 -7.2374897
000020 39 99 ab c1 43 6f 2b 41 1b 5e 62 c3 d6 63 39 44
       -21.449816 10.7146635 -226.3676 741.55994
000030 71 ca 98 c2 05 5e 4f c2 07 23 4b c3 c5 f3 29 c2
       -76.39539 -51.841816 -203.13683 -42.488056
000040 5d f5 d4 bf ec 91 5f c2 25 fe 14 c2 6d 77 95 c0
       -1.6637379 -55.8925 -37.248188 -4.6708283
000050 91 93 8b c3 d0 98 54 44 60 ac 0d c3 f9 19 a9 c2
       -279.15286 850.3877 -141.67334 -84.55073
000060 3e e3 6b c3 ca 6b 76 c2 60 f0 26 42 82 2a 0f c2
       -235.88766 -61.605263 41.73474 -35.79151
000070 0c 9d 18 c2 ca 54 7b bf c4 c2 0e 42 76 5e ba 41
       -38.153366 -0.9817625 35.6902 23.296124
000080 dd 1f f2 c0 86 c3 e5 42 a3 54 76 c0 d5 96 66 c2
       -7.5663896 114.88188 -3.8489158 -57.647297
000090 8f 56 83 c2 ca e1 96 c1 43 cc fa bf ba 51 7f b9
       -65.66906 -18.860249 -1.9593586 -0.0002434914
0000a0 a2 3a 48 c3 55 21 13 44 55 1a b3 c2 5e 67 55 c2
       -200.22903 588.5208 -89.55143 -53.350945
0000b0 d7 3d 3f c3 57 47 47 c2 9b 4d 63 c1 8e 43 83 c2
       -191.24156 -49.819668 -14.206447 -65.63194
0000c0 de ca 18 c2 84 61 e5 c0 2e fe f0 c2 cf 26 b0 43
       -38.198112 -7.168154 -120.496445 352.3032
0000d0 c2 e8 55 c2 ae cd af c1 d6 1b fc c2 2b 64 22 c2
       -53.477303 -21.97543 -126.05437 -40.59782
0000e0 64 e2 32 c1 d5 63 3d c2 b3 f8 cc c1 5e 20 dc c0
       -11.180271 -47.347492 -25.621435 -6.878951
0000f0 37 3a 2c c3 22 92 00 44 d5 a4 eb c2 03 fa 8e c2
       -172.2274 514.2833 -117.82194 -71.488304
000100 7c 00 1c c3 07 32 b2 c1 fb a3 d8 c0 fd 02 fd c1
       -156.00189 -22.274427 -6.770017 -31.62646
000110 90 0d b9 c1 fb 3e 19 3f 59 4d 17 c3 b5 f0 e4 43
       -23.131622 0.59861726 -151.30214 457.88052
000120 59 85 0a c2 bd 82 cd c0 87 36 1b c3 3b f0 5b c2
       -34.630222 -6.4222093 -155.213 -54.9846
000130 06 07 4c c1 74 2a 85 c2 ac 2d 0e c2 d3 42 2a c1
       -12.751715 -66.58292 -35.5446 -10.6413145
000140 ac ae 34 c3 4a c3 fd 43 9d 30 d4 c2 6a c5 8a c2
       -180.68231 507.5257 -106.09495 -69.385574
000150 c4 b6 28 c3 4e 67 14 c2 ac 67 64 c1 5e 7b 4e c2
       -168.71393 -37.100883 -14.2753105 -51.620476
000160 05 13 f8 c1 da 78 71 c0 9f 02 ea c3 49 11 b7 44
       -31.009287 -3.7730012 -468.02048 1464.5402
000170 49 73 6c c3 73 da 2c c3 55 c5 c1 c3 af cb 2a c2
       -236.45033 -172.85332 -387.54166 -42.69891
000180 e6 c5 69 c0 ff 07 9a c2 af 23 75 c2 88 ca 83 40
       -3.6527038 -77.01562 -61.284847 4.118473
000190 18 34 bb c1 42 a9 ab 42 28 84 9c 42 77 60 82 42
       -23.400436 85.83058 78.25812 65.18841
0001a0 d7 75 5e c2 a9 c1 6d c2 2b ad 0a c1 b1 01 6c c2
       -55.615078 -59.43912 -8.667277 -59.00165
0001b0 3d 74 c2 c1 ee ef 87 c1 00 00 00 00 00 00 00 00
       -24.306757 -16.992153 0.0 0.0
0001c0 00 00 00 00 00 00 00 00 00 00 00 00 00 00 00 00
       0.0 0.0 0.0 0.0
0001d0 00 00 00 00 00 00 00 00 00 00 00 00 00 00 00 00
       0.0 0.0 0.0 0.0
0001e0 57 8c 5a c3 cb 4d 33 44 ec 03 b3 c2 7f 04 87 c2
       -218.5482 717.2155 -89.50766 -67.50878
0001f0 53 7d 40 c3 a2 3e 07 c2 67 c6 3d 3f e3 96 30 c2
       -192.48955 -33.811165 0.7413086 -44.14735
000200 56 0a ff c1 00 5e fe bf 6b c1 db 41 52 19 b6 c0
       -31.880047 -1.9872437 27.469442 -5.690591
000210 05 2c 99 c2 2a d7 25 c2 c9 58 c5 41 1c 65 69 bf
       -76.585976 -41.46012 24.668352 -0.91169906
000220 08 d9 64 40 72 dc 79 41 7e 3b 05 c1 4a 2f a8 3f
       3.5757465 15.61632 -8.327024 1.3139431
000230 70 f3 0d c3 98 81 d6 43 59 f2 af c1 b5 91 ea 3e
       -141.95093 429.01245 -21.993334 0.4581429
000240 b3 e1 0d c3 f4 bc 4b c2 6f 4f 3b c1 cd b6 7e c2
       -141.88164 -50.934525 -11.706893 -63.678516
000250 b4 a6 07 c2 98 c2 21 c1 8d 36 42 c3 16 0a 09 44
       -33.912796 -10.110008 -194.21309 548.1576
000260 55 44 c2 c2 84 98 45 c2 d3 8f 3f c3 45 41 55 c2
       -97.13346 -49.39894 -191.56181 -53.31374
000270 23 f0 95 c1 80 43 8c c2 08 39 1d c2 08 36 03 c1
       -18.742254 -70.131836 -39.305695 -8.200691
000280 34 7b 83 c3 77 c8 69 44 42 03 8d c2 15 34 31 c2
       -262.96252 935.13226 -70.50636 -44.30086
000290 68 b2 5c c3 88 f9 f7 c1 3d 05 44 41 ca 24 2c c2
       -220.6969 -30.996841 12.251279 -43.035927
0002a0 f3 27 10 c2 c6 f5 fe be 93 ca 74 c3 21 0e 3e 44
       -36.039013 -0.49796885 -244.7913 760.22076
0002b0 de 58 01 c3 f9 f0 42 41 14 c7 0e c3 44 55 21 40
       -129.34714 12.183831 -142.77765 2.5208292
0002c0 21 05 eb 3f cd c6 96 c1 d0 6f c3 c1 25 11 0c 41
       1.836094 -18.84707 -24.429596 8.754186
0002d0 e2 36 d5 c3 9a cd 27 44 02 b2 95 c2 49 03 05 43
       -426.42877 671.2125 -74.84767 133.01283
0002e0 12 d3 5b c3 eb 3b 69 c2 9a 7c 93 c1 5a ea 9e c2
       -219.8245 -58.308514 -18.43584 -79.45772
0002f0 7c b2 36 c2 50 f8 0b c1 32 8a 2d 43 19 68 83 c3
       -45.6743 -8.748123 173.53983 -262.81326
000300 73 40 c7 43 e6 74 a1 43 92 54 d8 43 ee 7b 78 42
       398.5035 322.91327 432.6607 62.121025
000310 82 5c 1b c2 74 72 15 43 fa 1c f4 42 77 2d 1f 42
       -38.84034 149.44708 122.056595 39.7944
000320 a8 f5 47 c3 31 e2 1d 44 a3 b4 d6 c2 5d a5 88 c2
       -199.9596 631.53424 -107.352806 -68.322975
000330 34 41 32 c3 5c 12 de c1 c1 ef 55 c0 b6 ec 1c c2
       -178.2547 -27.758965 -3.3427584 -39.231163
000340 81 61 e5 c1 32 be 2a bf 73 87 82 c3 e2 d9 44 44
       -28.67261 -0.66696465 -261.0582 787.4044
000350 b5 62 ce c2 84 cb 52 c2 4f 0a 79 c3 6a b3 83 c2
       -103.19279 -52.698746 -249.04027 -65.85042
000360 a1 f2 78 c1 9e 22 a9 c2 bc 81 46 c2 52 7d 1a c1
       -15.559236 -84.56761 -49.626694 -9.655596
000370 6a c6 37 c3 26 77 34 44 a0 62 1f c1 0d 62 02 c2
       -183.77505 721.8617 -9.961578 -32.595753
000380 f7 80 0c c3 be fc 93 3f 52 78 9b 41 d6 df 97 c1
       -140.50377 1.1561506 19.43375 -18.984295
000390 c1 02 af c1 04 f5 d7 3f 36 82 41 c3 2d 69 1d 44
       -21.876345 1.6871648 -193.50864 629.6434
0003a0 8b 9e 16 c3 65 94 d6 c2 8d 8b 0b c3 50 23 9d 40
       -150.61931 -107.28983 -139.54512 4.9105606
0003b0 6c aa 40 40 4a 57 d6 40 f1 a1 a5 c1 a2 39 f9 40
       3.0104017 6.6981554 -20.704073 7.7882853
0003c0 c2 37 0e 44 ad 32 43 c3 41 14 b7 43 37 0b bd c2
       568.8712 -195.19795 366.15823 -94.521904
0003d0 74 90 15 44 60 3c c2 41 76 f6 59 c0 dc 16 2f 42
       598.2571 24.27948 -3.4056678 43.772324
0003e0 50 5c 5b 42 6d 4a a0 c1 44 d1 1a c3 59 ab b6 43
       54.84015 -20.03634 -154.81744 365.33865
0003f0 8c a7 f2 c2 d9 e9 62 c2 5c 25 04 c3 4c 6e d2 c1
       -121.32724 -56.728367 -132.14594 -26.303856

exp_avg_sq f4 [32, 10]
000000 c3 a9 f2 49 8b b3 70 4a d0 64 92 4a 37 47 97 49
       1.9878964e+06 3.9436508e+06 4.797032e+06 1.2392709e+06
000010 1e c0 0b 49 04 d0 a4 48 e9 79 eb 47 22 e6 c5 47
       572417.9 337536.12 120563.82 101324.266
000020 bb 44 7f 47 a7 96 a6 45 63 b4 41 4a 28 bb 75 4a
       65348.73 5330.8315 3.1736568e+06 4.026058e+06
000030 5f 91 99 4a 67 23 bf 49 e3 e6 1c 49 5d 67 c7 48
       5.0321115e+06 1.5658049e+06 642670.2 408378.9
000040 d6 d2 14 48 c8 4b 00 48 59 29 a7 47 9c 1f d8 45
       152395.34 131375.12 85586.695 6915.951
000050 da f0 6d 4a a4 9e 92 4a 1f 85 ba 4a 8e e2 e2 49
       3.8984225e+06 4.804434e+06 6.1118875e+06 1.8586418e+06
000060 36 e6 3c 49 3e df cb 48 3d b5 28 48 d2 d1 16 48
       773731.4 417529.94 172756.95 154439.28
000070 f8 98 c4 47 12 1c fb 45 c3 03 72 46 b8 8c f0 46
       100657.94 8035.509 15488.94 30790.36
000080 d5 5f 9c 46 69 9d 1e 49 eb 9f 52 45 94 f3 89 46
       20015.916 649686.56 3369.9949 17657.79
000090 9f 8c 8e 47 d8 04 ff 44 d8 68 52 42 a8 34 e5 41
       72985.24 2040.1514 52.602386 28.650711
0000a0 b8 93 5a 4a 04 33 60 4a d8 b9 85 4a d2 a4 aa 49
       3.581166e+06 3.673281e+06 4.381932e+06 1.3979142e+06
0000b0 44 1e 09 49 16 ce af 48 92 b1 06 48 22 02 ed 47
       561636.25 360048.7 137926.28 121348.266
0000c0 94 f2 96 47 0e 67 c2 45 b3 a0 d5 49 b2 a3 ce 49
       77285.16 6220.882 1.7500384e+06 1.6927902e+06
0000d0 e4 bc ee 49 21 c2 18 49 36 1a 79 48 fb 00 1e 48
       1.9557405e+06 625698.06 255080.84 161795.92
0000e0 44 fb 74 47 04 73 58 47 f0 87 08 47 9c 6e 30 45
       62715.266 55411.016 34951.938 2822.913
0000f0 e6 25 c4 49 d6 c8 df 49 e4 90 10 4a 7f 4f 30 49
       1.6068448e+06 1.8332428e+06 2.368569e+06 722167.94
000100 8b 76 92 48 d1 0f 37 48 03 8c 86 47 3b 00 6b 47
       299956.34 187455.27 68888.02 60160.23
000110 c7 2a 16 47 e8 46 3e 45 e8 1a 32 4a 57 b8 37 4a
       38442.777 3044.4316 2.918074e+06 3.0100698e+06
000120 94 b7 4f 4a 95 b7 83 49 3d c4 d9 48 dd b5 8a 48
       3.403237e+06 1.0790266e+06 445985.9 284078.9
000130 28 f0 d8 47 db 76 be 47 d3 66 71 47 fc 0c 9d 45
       111072.31 97517.71 61798.824 5025.623
000140 1e b9 1e 4a ee fa 1a 4a be 62 3d 4a 86 3c 73 49
       2.6005195e+06 2.5391955e+06 3.1028955e+06 996296.4
000150 1a da c2 48 72 3e 76 48 8c 93 bb 47 d8 60 a6 47
       399056.8 252153.78 96039.09 85185.69
000160 52 cc 51 47 e9 95 86 45 7b 2a 14 4b 85 0b 4c 4b
       53708.32 4306.739 9.710203e+06 1.3372293e+07
000170 fe 86 80 4b 95 bd 99 4a 1c 2c 00 4a 5d c6 9e 49
       1.6846332e+07 5.0377705e+06 2.099975e+06 1.3006836e+06
000180 b3 20 ea 48 cd 53 bd 48 24 56 82 48 fd 90 a7 46
       479493.6 387742.4 266929.12 21448.494
000190 aa e6 b0 49 bc ea e6 49 27 bf ca 49 0b 01 fd 48
       1.4491732e+06 1.8916715e+06 1.6609009e+06 518152.34
0001a0 34 e1 56 48 d0 36 02 48 24 f1 5c 47 df 70 41 47
       220036.81 133339.25 56561.14 49520.87
0001b0 bb 94 e6 46 b4 8d 1e 45 00 00 00 00 00 00 00 00
       29514.365 2536.8564 0.0 0.0
0001c0 00 00 00 00 00 00 00 00 00 00 00 00 00 00 00 00
       0.0 0.0 0.0 0.0
0001d0 00 00 00 00 00 00 00 00 00 00 00 00 00 00 00 00
       0.0 0.0 0.0 0.0
0001e0 84 49 1d 4a 62 f4 51 4a fa e3 84 4a 07 e8 a5 49
       2.576993e+06 3.4398965e+06 4.354557e+06 1.3591049e+06
0001f0 8f 72 06 49 f2 a5 a9 48 ad c5 fa 47 97 79 d8 47
       550696.94 347439.56 128395.35 110835.18
000200 4f f9 8c 47 a3 00 b6 45 29 01 9c 49 ce e5 8d 49
       72178.62 5824.0796 1.2779891e+06 1.1624258e+06
000210 52 58 62 49 e8 56 76 48 c7 1f d1 47 23 9b c6 46
       927109.1 252251.62 107071.555 25421.568
000220 80 3c 82 46 f9 ad b4 46 a5 02 af 45 c2 6a 40 44
       16670.25 23126.986 5600.3306 769.6681
000230 b2 0b 1b 4a f7 c9 22 4a 23 18 37 4a 6b a5 67 49
       2.5402685e+06 2.6671338e+06 2.9998168e+06 948822.7
000240 9e 1e c0 48 28 29 75 48 f3 5b c0 47 0a a8 a8 47
       393460.94 251044.62 98487.9 86352.08
000250 c4 90 56 47 fd 9c 8b 45 67 4c 6e 4a bb 0d 62 4a
       54928.766 4467.6235 3.9042818e+06 3.7036628e+06
000260 74 f6 84 4a 84 a8 a9 49 3b 1c 0a 49 d5 21 af 48
       4.356922e+06 1.3898405e+06 565699.7 358670.66
000270 48 4c 07 48 0a be ef 47 35 60 97 47 35 81 c2 45
       138545.12 122748.08 77504.414 6224.151
000280 1c 01 35 4a 27 da 92 4a 5d 27 bb 4a e3 bd da 49
       2.965575e+06 4.8120515e+06 6.1326545e+06 1.7919324e+06
000290 c6 e5 3a 49 8a b0 ea 48 72 85 2a 48 d7 4b 0f 48
       765532.4 480644.3 174613.78 146735.36
0002a0 e0 33 bf 47 52 61 f7 45 a2 92 ed 49 a1 ef 44 4a
       97895.75 7916.165 1.9461962e+06 3.2266002e+06
0002b0 b6 d9 6e 4a 15 8b 5d 49 05 85 d0 48 72 8b 8b 48
       3.9133255e+06 907441.3 427048.16 285787.56
0002c0 b2 d7 c9 47 0a 2a ad 47 6a a2 50 47 6b e4 8d 45
       103343.39 88660.08 53410.414 4540.5522
0002d0 f0 74 74 4a e3 62 93 4a db 38 af 4a c0 9d b7 49
       4.00518e+06 4.8295535e+06 5.7416775e+06 1.504184e+06
0002e0 10 33 35 49 de fd e6 48 e0 5e 31 48 58 49 1b 48
       742193.0 473070.94 181627.5 159013.38
0002f0 ae 4a c6 47 d6 16 fe 45 12 51 eb 48 ef de 42 4a
       101525.36 8130.8545 481928.56 3.1927638e+06
000300 e7 19 80 4b a5 ed a0 4a 24 b9 06 4a 3f 70 0a 49
       1.6790478e+07 5.2732985e+06 2.207305e+06 567043.94
000310 fd 01 18 48 22 85 a0 48 62 0e 84 48 ca 97 98 46
       155655.95 328745.06 270451.06 19531.895
000320 07 57 03 4a a8 df 23 4a 7e f6 51 4a 11 97 80 49
       2.1518738e+06 2.684906e+06 3.4400315e+06 1.0534101e+06
000330 01 d5 d3 48 4d 64 85 48 2e 67 c4 47 f5 ff a9 47
       433832.03 273186.4 100558.36 87039.914
000340 84 56 5c 47 f9 97 8c 45 43 77 b4 4a eb b9 bf 4a
       56406.516 4498.9966 5.9135055e+06 6.2824855e+06
000350 17 55 e6 4a 6a df 10 4a e7 88 6e 49 b9 be 17 49
       7.5475315e+06 2.3735945e+06 977038.44 621547.56
000360 70 b1 67 48 48 d3 4a 48 36 ad 01 48 3b 17 27 46
       237253.75 207693.12 132788.84 10693.808
000370 be 35 91 49 45 15 10 4a f2 37 34 4a 48 a6 50 49
       1.1895598e+06 2.3606572e+06 2.9527005e+06 854628.5
000380 5d d7 ae 48 b0 25 3c 48 0d 67 9b 47 bd cb 80 47
       358074.9 192662.75 79566.1 65943.48
000390 c2 e1 2e 47 4f 74 66 45 f6 63 76 49 29 46 f5 49
       44769.758 3687.2693 1.0092154e+06 2.0092851e+06
0003a0 9a d3 14 4a e3 e0 27 49 f2 ff 89 48 24 b3 25 48
       2.4383745e+06 687630.2 282623.56 169676.56
0003b0 0c 4d 6b 47 c9 fd 1d 47 a0 cc eb 46 57 55 1f 45
       60237.047 40445.785 30182.312 2549.3337
0003c0 e4 94 16 4b 8d 6d 04 4a 32 1f 4f 4a 8f 5d 01 4a
       9.868516e+06 2.1696992e+06 3.3934845e+06 2.1195238e+06
0003d0 9c 4b 1d 4a bd bf cb 49 80 66 12 49 36 65 f7 48
       2.577127e+06 1.6691116e+06 599656.0 506665.7
0003e0 ed 34 a0 48 8d 7e cd 46 da e3 c7 49 c0 ff b1 49
       328103.4 26303.275 1.6374992e+06 1.458168e+06
0003f0 a7 8c d6 49 ea 63 09 49 94 62 5e 48 38 9c 0a 48
       1.7575889e+06 562750.6 227722.31 141936.88

exp_avg f4 [32]
000000 2d 3d 61 bf f2 8c 7e bf d2 f3 5d bf 2b 5d 24 3f
       -0.8798397 -0.99433815 -0.86700165 0.64204663
000010 c6 8f 53 bf 0c 89 0a bf 10 54 48 bf 44 48 18 bf
       -0.82641256 -0.54115367 -0.7825327 -0.5948527
000020 ce ed 40 bf ed 42 ec bf 2a 5b b8 be 00 00 00 00
       -0.7536286 -1.8457924 -0.36007053 0.0
000030 fc 49 81 bf 5d b5 f8 bf b0 97 fa be 8c 75 46 bf
       -1.0100703 -1.9430348 -0.48943853 -0.7752311
000040 1a e6 8e bf 48 12 b5 3e d6 e5 5d bf 2b 35 58 41
       -1.1163971 0.3536551 -0.86678827 13.51298
000050 44 ee 66 bf 5b d2 8a bf 50 54 1d bf f1 2f 33 bf
       -0.90207314 -1.0845445 -0.61456776 -0.6999503
000060 bd 49 44 41 7c ad b9 be c3 ce 45 be 4a 74 81 bf
       12.2680025 -0.3626517 -0.19317155 -1.0113614
000070 28 1d b5 bf ff 71 87 bf 1d b0 7c bf 53 1e 90 3d
       -1.4149523 -1.0581664 -0.9870623 0.07037034
