NNp1/kernel_cnn.pth (torch, 73909 bytes, 34 tensors)

conv1.weight f4 [16, 1, 3]
000000 7e 61 ec 3e 6e d3 ca 3e 8c 82 21 3d bc ff ff be
       0.4616813 0.39614433 0.03943114 -0.49999797
000010 c8 66 c3 bd 7c 27 e1 be 48 7f d7 be 12 c6 19 bd
       -0.09541088 -0.43975437 -0.42089295 -0.03754241
000020 8b eb 80 bc c0 7a e3 3d 40 e7 52 3e a6 e6 4c 3e
       -0.015737316 0.11107397 0.20596027 0.2000986
000030 0d ee f9 bd b7 37 c1 3e d9 c7 76 be fb 9f 4e bd
       -0.12203608 0.3773782 -0.24099673 -0.050445538
000040 9f e7 08 bf 9a d6 ef b8 7c 00 0f 3f eb dc 00 bf
       -0.53478426 -0.00011436381 0.55860114 -0.50337094
000050 f0 1a 49 3d e7 1b 00 bd bc 86 cc be 44 cc e8 be
       0.049097955 -0.03127661 -0.39946544 -0.45468342
000060 40 30 ad 3e 50 8d 8e 3e f5 8a b2 3c c1 c8 0a 3f
       0.33825874 0.27842188 0.021794776 0.54212576
000070 aa a4 c9 3c c3 9a 85 3c 49 64 7f bd c1 a6 6c bc
       0.02461465 0.016309148 -0.0623515 -0.014444054
000080 6b 51 97 3e 11 75 02 3f e0 dd f3 3e f8 f4 dd bd
       0.29554304 0.5095988 0.47630215 -0.1083774
000090 f4 6e bb bd f4 c2 07 3f 61 21 9b be d8 f5 db bd
       -0.09152022 0.5303185 -0.30298904 -0.1074025
0000a0 73 29 d8 3e b3 77 03 3f cf 64 1d 3c 3c c1 bc 3e
       0.42219123 0.5135452 0.009606554 0.36866176
0000b0 fe bb ee 3d 15 a7 10 bd fb 09 47 be f1 2e 40 bf
       0.116569504 -0.03531559 -0.19437401 -0.75071627

conv1.bias f4 [16]
000000 97 d7 14 bf 03 fc ac 3e 61 ab c9 be d0 f5 d4 be
       -0.58141464 0.3378602 -0.39388564 -0.4159379
000010 94 d1 b0 3e fb c8 af 3d ae 07 c3 3d c3 22 ad be
       0.34534895 0.08583256 0.09522949 -0.33815584
000020 83 07 81 be 10 6a 78 3e 8e 71 52 bd 79 66 cc be
       -0.25201043 0.2425921 -0.051377825 -0.3992193
000030 a4 29 0d bf 2b 3e 09 be 7d c8 b1 3e 78 a8 17 bf
       -0.55141664 -0.13402621 0.34723273 -0.5924144

bn1.weight f4 [16]
000000 8f 0b 96 3f 88 5f a4 3f 89 cc b7 3f 03 9b 8b 3f
       1.1722277 1.2841654 1.4359294 1.0906681
000010 b1 42 58 3f fd e5 b3 3f 27 66 74 3f a9 c1 c5 3f
       0.84476763 1.4054562 0.9546837 1.5449725
000020 b4 0b 84 3f e1 ad 87 3f 59 36 37 3f 0a 10 55 3f
       1.0316072 1.0599939 0.715673 0.832276
000030 f9 71 4b 3f 72 36 8a 3f 05 a2 67 3f 3e 75 81 3f
       0.79470783 1.0797865 0.904816 1.0113904

bn1.bias f4 [16]
000000 b7 6a 23 3e 3e 43 5b be 75 ec 0d 3e 8e d2 8e 3d
       0.15958677 -0.2141237 0.13859732 0.06973754
000010 1e 09 a2 3e 41 69 7f 3e 52 34 e9 3e f5 5a cc be
       0.3164758 0.24942495 0.4554773 -0.39913145
000020 bd 4e ff 3e 83 e1 6f 3e 44 ee 01 3f 12 55 e7 bd
       0.4986476 0.2342587 0.5075419 -0.11295523
000030 a1 d7 c7 3e 88 37 10 3f 19 1e c1 3e c2 61 a1 3e
       0.390317 0.56334734 0.37718275 0.31519896

bn1.running_mean f4 [16]
000000 de 30 6b 41 eb a9 7f c1 e5 9e 07 c1 f9 d3 f9 40
       14.69943 -15.978984 -8.476293 7.8071256
000010 d0 68 b3 3f 24 a1 1f c1 4f 08 d8 3f c8 e2 60 c1
       1.4016361 -9.976841 1.6877536 -14.0553665
000020 f6 53 2a 41 f2 10 23 41 e2 8f 2e 40 f8 87 70 41
       10.645498 10.191637 2.727532 15.0331955
000030 6b 5f 33 40 bf 8f 46 41 9a 7e 07 41 d5 43 6f c1
       2.8026989 12.410094 8.468409 -14.954061

bn1.running_var f4 [16]
000000 e0 89 1f 44 9c 6f 23 44 cf a9 92 43 d8 40 16 43
       638.1543 653.7439 293.32663 150.2533
000010 bb 5d 90 43 88 d4 ec 43 53 7a 58 44 d3 84 0b 44
       288.73227 473.6604 865.9113 558.0754
000020 a2 06 a5 43 92 87 f0 43 f0 b4 dc 42 fc 1b 51 44
       330.05182 481.05914 110.35339 836.43726
000030 fa f6 02 44 b0 95 29 44 45 fe 79 43 2f 98 40 44
       523.859 678.33887 249.99324 770.37787

conv2.weight f4 [32, 16, 3]
000000 fe ae 26 3d b4 5f a9 3d 9f 1e 0b be 54 74 1f bd
       0.04069423 0.08270207 -0.135859 -0.0389293
000010 73 03 1d be 2e 60 01 3d f1 1b 2c bc d8 59 8b bd
       -0.15333347 0.031585865 -0.010504709 -0.06804246
000020 36 3a 4a be bd 31 bf 3d c2 65 10 3d f0 3f c1 bd
       -0.19748768 0.09335659 0.035253294 -0.09436023
000030 af 72 cf 3c 8d 4c 79 bd 28 ea ec 3c bc c0 bb 3d
       0.02532324 -0.06086402 0.028920248 0.091676205
000040 b9 db 53 3d 96 e5 3f 3e 42 c6 45 3c 7a 0c 96 bc
       0.051723216 0.18739924 0.012071194 -0.018316496
000050 1d 40 fb 3d f4 23 7f 3d 0d 93 40 be 15 4c 54 be
       0.12268088 0.062290147 -0.18806095 -0.20732148
000060 8d f7 9d 3b 96 15 93 bd 3f c4 1e 3e d8 11 1e 3e
       0.00482077 -0.071818516 0.1550455 0.15436494
000070 01 8e 5d 3c 8b e2 2c 3d f1 d3 08 be a2 b3 15 bc
       0.013522626 0.042208236 -0.13362099 -0.009137066
000080 a4 b0 81 3d 6b a1 7e 3d 54 8d a4 bd ce 63 8a bd
       0.0633252 0.06216566 -0.08034769 -0.067573175
000090 83 43 e9 bc da 61 de bd a3 75 89 bd fc bb c6 3b
       -0.028474575 -0.108585075 -0.067118905 0.00606489
0000a0 dd 4f 4f 3e 23 da 74 3c 6d ef 6b 3d 3c 5b 10 3e
       0.20245309 0.014944586 0.05760138 0.14097303
0000b0 8a 80 24 bd dc da 35 3e 1a 51 4d be bc 36 c9 bd
       -0.040161647 0.1775927 -0.20050469 -0.09824893
0000c0 8e d7 6d bd 1a e4 f2 3c 1a 55 b5 3d 2e 64 20 bd
       -0.058066897 0.029649783 0.088541225 -0.03915804
0000d0 72 f2 49 be 8a 28 e3 3d e6 9e ef bd bf 68 4a be
       -0.19721392 0.110917166 -0.11700229 -0.1976652
0000e0 e7 96 f2 3b ff 6a 5f bd 27 e1 19 bd 32 14 9c 3d
       0.007403243 -0.0545454 -0.037568238 0.076210395
0000f0 13 ec ef 3d 7c 83 64 3e 41 ba 8f bd c1 74 1a be
       0.117149495 0.22315782 -0.07017947 -0.150836
000100 77 24 8a bd d3 02 95 3c 91 e7 1a bd 94 cc bb bd
       -0.06745236 0.018189823 -0.037818495 -0.091698796
000110 5c 38 11 be 3f 0b 0a 3e 72 af 6b bd 82 c6 0b be
       -0.14181656 0.13480853 -0.057540365 -0.13649943
000120 a4 88 d7 3d 2e 84 82 3d 67 0d bf bc fe 91 7c 3d
       0.10524109 0.063728675 -0.02332182 0.061662666
000130 d8 38 36 3d 10 4b 43 3d b9 10 c1 bd 94 71 1a 3d
       0.044487804 0.047679007 -0.09427018 0.037705973
000140 63 f8 c4 bd 7c 12 3f bc cf 1f 4f bd 47 97 81 bd
       -0.096176885 -0.011662122 -0.050567444 -0.06327682
000150 1f 70 8b 3d 18 73 62 3d 4d 49 13 3e 34 b5 c1 bc
       0.06808495 0.055285543 0.14383431 -0.023645975
000160 f7 d8 0e bd ff ec 3b bd 2e 57 71 bd a5 5c d6 bd
       -0.034874883 -0.045880314 -0.05892103 -0.10466889
000170 35 fb 5e bd 52 a7 fe 3d 00 c5 25 3e 04 5b 6c bd
       -0.05443879 0.124342576 0.16188431 -0.057703987
000180 a2 b9 71 bd 56 68 b6 3d e0 38 00 bd c1 63 48 3c
       -0.059014924 0.08906619 -0.03130424 0.012230814
000190 e2 8c 2e be b4 23 d1 3b 60 54 b0 3c c0 3a 24 bd
       -0.1704593 0.00638243 0.021524608 -0.04009509
0001a0 71 c1 ba bd f1 7f ea 3d 28 96 21 3c 22 53 32 3d
       -0.09118927 0.11450184 0.00986246 0.043536313
0001b0 82 75 52 3d 7f ed e8 bb 4c 67 8e bd 34 ae 91 3d
       0.051381595 -0.00710839 -0.06953296 0.07113305
0001c0 e8 98 93 bb bb 5e 3a 3e 8e d3 8d 3b 17 a3 25 bc
       -0.004504312 0.182002 0.004328198 -0.010109684
0001d0 f6 a7 f1 3d 20 71 cc 3d b2 bd 6c be cf 6b 90 be
       0.11799614 0.099825144 -0.23119238 -0.2820725
0001e0 d5 85 97 3d a5 47 88 bd 2e 53 ba 3d 9e 0d fe 3d
       0.07398573 -0.0665429 0.090978965 0.12404941
0001f0 f1 54 50 3d 57 4c 85 3d f7 3d 75 bd 7a 1d 62 bd
       0.050862256 0.06508701 -0.059873547 -0.055203892
000200 ed 09 03 3d a6 42 e3 3d d2 28 09 bd 88 f2 4f bd
       0.031991888 0.110966966 -0.033486195 -0.050768405
000210 8d a3 9f bd 6d 75 6f be 50 b3 7f 3d 1c f0 49 bd
       -0.07794867 -0.23384638 0.062426865 -0.04930125
000220 a6 d4 62 3e c2 2f 34 bd 0a 4f 06 bc 40 9c 83 bd
       0.22151431 -0.043990858 -0.008197555 -0.06426287
000230 d0 b6 b6 bd 0a 2e 1b 3e 21 0f 84 be 79 47 f5 bd
       -0.089215875 0.15154281 -0.25792792 -0.11976523
000240 a0 37 ea 3c 10 28 42 3d a0 ad 6b bd 12 01 c4 bc
       0.028590977 0.047401488 -0.05753863 -0.023926292
000250 6b c0 e7 bd 56 d0 9f 3d 7f c9 cf bd a3 35 b7 3c
       -0.11315998 0.07803409 -0.10145854 0.022364443
000260 9a 59 17 bd ba 5d d9 bc d4 b5 9a 3d b1 f8 61 bc
       -0.036950685 -0.02653395 0.07554212 -0.013792203
000270 df da 3c bd e3 c5 1a be b3 17 be bd 1c 33 33 3d
       -0.04610717 -0.1511455 -0.09281864 0.043749914
000280 5c 87 c6 bc d6 9d 36 3e 81 c7 9e 3c c7 7c ee 3c
       -0.024234466 0.17833647 0.01938224 0.029112233
000290 e6 d1 e6 3d 3c f3 05 3e bd f9 c8 bd 56 5e 26 be
       0.11270504 0.13081068 -0.09813259 -0.16246924
0002a0 e3 87 58 bd 93 4d c1 bc 53 62 b2 3d 59 e5 eb 3d
       -0.052863967 -0.02359656 0.0871016 0.11518354
0002b0 87 44 a5 bc aa 2c 06 3e 3c b1 c3 bd 77 04 e1 3c
       -0.020174278 0.13102975 -0.09555289 0.02746795
0002c0 30 72 13 3d 23 de f6 3c 2e e6 f8 bd 1a b7 90 bc
       0.03599757 0.03013522 -0.12153278 -0.017665435
0002d0 2a 77 61 3c b7 f1 b8 bc 95 74 30 3d c3 9e 1c 3d
       0.013761321 -0.022576196 0.04307993 0.038237344
0002e0 1d 18 c2 3d 2d 04 f5 bb d0 ea 01 3e 75 1d 82 bd
       0.094772555 -0.0074773044 0.1268723 -0.06353275
0002f0 67 b4 95 bd 17 16 7b 3e 99 84 35 be 36 6d ce bd
       -0.073098 0.24520145 -0.17726363 -0.10079424
000300 d4 09 d7 3c 9b e7 8f 3c 78 80 ef 3d 82 37 0b 3e
       0.026249804 0.017566493 0.11694425 0.13595393
000310 f0 c8 8e 3d f9 c2 c0 bb 35 ce 17 be 83 92 eb bd
       0.069719195 -0.0058826176 -0.14824755 -0.11502554
000320 11 e4 45 3e 8d 23 e7 bd a1 f5 e0 bd 88 b4 08 be
       0.19325282 -0.11286078 -0.1098435 -0.13350117
000330 5f 85 17 3e 10 1f 94 3d d8 0b 0c bb 61 c6 22 bc
       0.14796971 0.07232487 -0.0021369364 -0.0099349925
000340 5b 9c 40 be 84 76 a8 bd 77 37 c9 3c 08 d8 87 3c
       -0.18809645 -0.0822573 0.02456258 0.016582504
000350 7b 18 24 bd 22 80 05 3e 47 fd 28 3e a6 18 96 3b
       -0.04006241 0.1303716 0.16502868 0.004580575
000360 79 70 da 3d c2 d9 c8 3d 87 41 03 be ce 2e 5e bd
       0.10665984 0.09807159 -0.12817965 -0.054243855
000370 9f 90 69 3d 1d 8f 1c bd 25 1a 0b 3c 95 ec c0 3d
       0.057022687 -0.03822242 0.00849012 0.094201244
000380 87 2b 16 b8 7e a3 67 bb bd 7f eb 3c 1f 96 33 3d
       -3.5803325e-05 -0.0035345252 0.028747434 0.04384434
000390 17 3c 34 be 52 10 9d 3d 09 88 fc bb 7d d5 42 3c
       -0.17601047 0.076691285 -0.0077066463 0.01189172
0003a0 1a ac 62 bd 2e 5f 32 3d b4 1b d7 bd ee 49 9f 3d
       -0.05533991 0.0435478 -0.10503331 0.07777773
0003b0 6b cc 90 3d ac 79 35 be e7 8b c6 3d c3 ed f4 bc
       0.0707024 -0.17722195 0.09694653 -0.02989853
0003c0 6f 9c 21 3d 4d 76 9f 3d ef 20 e0 bd 39 73 cd 3c
       0.039455827 0.07786236 -0.109437816 0.025079357
0003d0 a4 0c f8 bd 76 53 2c 3d 18 5c 00 3d ab 09 db 3c
       -0.12111786 0.042071782 0.031337827 0.026738008
0003e0 61 45 0a be e4 1b 8f 3d ee 85 44 3d 75 a1 f4 bd
       -0.13503028 0.069877416 0.047979288 -0.11944858
0003f0 55 ff 50 3c 36 d2 12 be 57 2f 98 bd 92 c3 45 3d
       0.012756188 -0.14338002 -0.07430904 0.048282214

conv2.bias f4 [32]
000000 02 35 9f bf 36 90 af bf 8d 9e a7 bf 6c f1 9b bf
       -1.2438052 -1.3715885 -1.3095261 -1.2183051
000010 cb 51 b9 bf 8e 52 b1 bf 67 35 8d bf ff 53 94 bf
       -1.4478086 -1.3853319 -1.1031922 -1.1588134
000020 ed e6 a7 bf fd d6 9c bf 44 71 93 bf d7 ce a9 bf
       -1.3117348 -1.2253109 -1.1518941 -1.3266248
000030 ce 5a d0 3e 77 77 89 bf aa 19 82 bf ac ca b1 bf
       0.40694278 -1.0739583 -1.0164082 -1.3889976
000040 40 b5 b9 bf 84 28 b9 bf ab bf ac bf 2f 25 50 bf
       -1.4508438 -1.4465489 -1.3495992 -0.8130674
000050 d7 ac 99 bf 33 b2 ae bf e5 98 b1 bf e8 0a 9f bf
       -1.2005872 -1.3648132 -1.3874785 -1.2425203
000060 30 a2 8b bf 75 ab bf bf a5 1e 99 bf e2 df 94 bf
       -1.0908871 -1.49742 -1.1962477 -1.1630824
000070 8a b8 b2 bf 4f 33 a1 bf 5e 92 86 bf 20 9a 45 bf
       -1.3962567 -1.2593783 -1.0513418 -0.771883

bn2.weight f4 [32]
000000 90 10 72 40 ed aa 73 40 46 f0 71 40 4e 0d 72 40
       3.782261 3.8073075 3.7802901 3.782062
000010 13 fa 89 40 5f 0a 71 40 00 e9 6f 40 03 d2 70 40
       4.3117766 3.766258 3.7485962 3.762818
000020 40 2d 70 40 c4 75 71 40 46 55 72 40 91 9c 72 40
       3.7527618 3.7728128 3.7864547 3.790806
000030 7c 3f 80 40 8b 05 73 40 dd b3 71 40 84 59 76 40
       4.0077496 3.7972133 3.776603 3.8492136
000040 ac 7a 6d 40 a7 a8 72 40 3c df 86 40 a8 58 72 40
       3.7106123 3.7915437 4.2147503 3.7866611
000050 6e 7b 71 40 d1 4d 7f 40 52 26 72 40 72 4a 73 40
       3.7731586 3.9891245 3.783589 3.8014188
000060 40 59 72 40 d3 53 87 40 fe 2c 72 40 d7 ea 71 40
       3.7866974 4.2289824 3.783996 3.7799585
000070 c0 e6 71 40 16 7c 72 40 a1 2c 6d 40 34 58 72 40
       3.7797089 3.7888236 3.705849 3.7866335

bn2.bias f4 [32]
000000 18 a8 30 40 85 06 2f 40 2f 2e 30 40 04 45 2f 40
       2.7602596 2.734773 2.7528188 2.7385874
000010 36 8b 31 40 ae 8a 2e 40 97 0c 2f 40 59 7c 2e 40
       2.7741218 2.7272143 2.7351434 2.7263396
000020 58 4d 2e 40 81 d5 2d 40 b0 7d 2f 40 4b 3e 2f 40
       2.7234707 2.7161562 2.7420464 2.738177
000030 87 7e 31 40 d4 93 2e 40 6d 0b 2f 40 98 74 30 40
       2.7733476 2.7277727 2.7350724 2.7571163
000040 3a 76 32 40 2c f3 2e 40 48 32 31 40 8d 08 30 40
       2.788466 2.733592 2.768694 2.750522
000050 ac 77 2f 40 6a 3b 31 40 e1 3c 2e 40 a0 a5 30 40
       2.7416792 2.7692513 2.7224658 2.760109
000060 ba 70 30 40 1c 19 32 40 fc f0 2e 40 04 7a 2e 40
       2.7568803 2.7827826 2.7334585 2.7261972
000070 31 39 2e 40 bb f6 2f 40 bf e4 2f 40 17 d7 2f 40
       2.7222407 2.7494342 2.7483366 2.747503

bn2.running_mean f4 [32]
000000 61 5b 8f bf a2 03 c5 bf b4 47 ab bf 40 a7 8e bf
       -1.1199762 -1.5391734 -1.3381257 -1.1144791
000010 56 07 bf bf ef 89 9d bf 6a 75 88 bf ba cc 93 bf
       -1.4924114 -1.2307719 -1.0660832 -1.1546853
000020 e0 f7 a2 bf 0e 32 7c bf ef f7 81 bf 20 51 99 bf
       -1.2731895 -0.9851388 -1.0153788 -1.1977882
000030 04 36 f6 3e de 6f 62 bf 67 d5 5f bf ab ad bb bf
       0.48088086 -0.88451946 -0.87435 -1.4662374
000040 96 cc b0 bf b0 93 af bf 64 a3 ae bf fd 88 3e bf
       -1.3812435 -1.3716946 -1.3643613 -0.7442778
000050 2e a0 8a bf 99 72 ae bf 3d c8 a8 bf b5 86 9c bf
       -1.0830133 -1.3628722 -1.3186108 -1.2228609
000060 43 7b 83 bf ad 12 c7 bf 44 d9 81 bf 36 a0 82 bf
       -1.0271991 -1.5552574 -1.0144429 -1.0205142
000070 dd 95 a0 bf 60 cf a0 bf 25 d6 83 bf b4 5d 16 bf
       -1.2545735 -1.2563286 -1.0299727 -0.5873673

bn2.running_var f4 [32]
000000 77 49 34 3e 9e eb 21 3d 7b 88 f7 3d 15 a3 17 3d
       0.1760615 0.039531343 0.120865785 0.03702076
000010 3c e6 2b 3c 75 fd d3 3d 5e db 9b 3e 28 27 20 3e
       0.010491904 0.103510775 0.304408 0.15639937
000020 1d b9 6d 3e 23 fe e3 3d 9c 71 cd 3d b1 b2 d9 3d
       0.23215146 0.11132457 0.10031435 0.10629786
000030 82 ad 98 3c a8 46 8d 3d df 53 f5 3d 92 7a a5 3c
       0.018637422 0.06898242 0.11978888 0.020200048
000040 3a b7 49 3c 43 6d 36 3d a0 7e a4 3b 7f 36 a5 3d
       0.012311751 0.044537794 0.0050199777 0.08067035
000050 7f 79 45 3e 91 70 d4 3c 9f e8 3f 3d 52 59 19 3e
       0.19284628 0.025932582 0.046852704 0.14975479
000060 6d 45 f3 3d 3d 5d e1 3c aa cc 0e 3e 6b 9f a1 3d
       0.11878476 0.02751028 0.1394526 0.07891735
000070 f5 f4 f0 3d 79 21 77 3d 85 d6 6d 3c 5d 5e d9 3d
       0.11765472 0.060334656 0.0145164775 0.106137015

fc.weight f4 [10, 320]
000000 46 13 62 40 f3 8e 32 40 ee a9 3e 40 59 75 e3 3f
       3.5324264 2.789975 2.9791217 1.7770187
000010 71 ec e9 3f 5a 2f 02 40 f1 8a 06 40 4b be e7 3f
       1.8275281 2.03414 2.1022303 1.8104948
000020 20 df b2 3f a9 14 a8 bd bb b6 79 40 25 23 6a 40
       1.3974342 -0.082070656 3.901778 3.658395
000030 cb 7b 4c 40 99 56 f7 3f 37 39 f0 3f a4 60 ff 3f
       3.1950557 1.9323303 1.876746 1.9951367
000040 69 f8 e8 3f e1 73 af 3f 9b 70 90 3f 13 75 4a 40
       1.8200809 1.3707238 1.1284364 3.1633956
000050 1e b3 5e 40 48 75 36 40 16 b0 45 40 b9 9f e4 3f
       3.4796824 2.8509083 3.0888724 1.7861243
000060 76 d9 ea 3f 29 45 06 40 97 fe 0b 40 e0 b5 f5 3f
       1.8347614 2.0979712 2.187414 1.9196129
000070 1c 11 b6 3f 32 14 11 3e 63 c9 6b 40 66 39 2b 40
       1.4223971 0.1416786 3.6841667 2.6753783
000080 a3 44 41 40 1c f0 e8 3f a3 8c e6 3f 34 f2 02 40
       3.0198143 1.8198276 1.8011669 2.046033
000090 c9 7d 0b 40 17 94 d4 3f 68 76 8e 3f 3d 07 0c bf
       2.1795523 1.6607693 1.1129885 -0.54698545
0000a0 b8 e5 06 bd 21 35 22 40 8f 43 45 40 5d b6 13 40
       -0.03293392 2.5344927 3.0822484 2.3080056
0000b0 97 a7 18 40 18 fd 23 40 17 66 21 40 d2 a2 25 40
       2.3852289 2.5623226 2.521856 2.5880628
0000c0 17 15 38 40 50 6f 4c 40 e6 90 5e 40 81 ad 31 40
       2.8762872 3.194294 3.477594 2.7762148
0000d0 a1 93 3f 40 d6 93 e4 3f 8f 7e e3 3f 8a 49 07 40
       2.9933856 1.7857616 1.7772998 2.1138635
0000e0 f1 19 0a 40 50 e9 f6 3f fa f4 ca 3f 7a 2a 81 bd
       2.1578333 1.9289951 1.5856011 -0.0630693
0000f0 4a cb 57 40 7a 42 48 40 12 71 45 40 45 70 ee 3f
       3.3717828 3.1290574 3.0850263 1.8628012
000100 b8 64 e8 3f 98 9a fb 3f 44 ca 02 40 59 d7 ee 3f
       1.8155737 1.9656553 2.0435953 1.8659469
000110 4d 39 e0 3f b1 33 91 3f 1d 51 70 40 27 ea 3a 40
       1.7517487 1.13439 3.7549508 2.9205415
000120 31 fe 43 40 47 a9 ec 3f aa b9 f1 3f 85 14 00 40
       3.0623896 1.8489159 1.8884785 2.0012524
000130 70 c7 09 40 a2 72 f7 3f 43 20 d5 3f 1d c3 0f 3f
       2.1527977 1.9331858 1.665047 0.56157094
000140 88 4f 64 40 5e 34 3f 40 ac 7c 38 40 ee b1 ed 3f
       3.5673542 2.9875712 2.8826094 1.8569925
000150 ed a5 e9 3f 2b c1 06 40 30 c8 07 40 4b e1 fb 3f
       1.8253762 2.10554 2.1215935 1.9678129
000160 e4 7b e3 3f 57 93 1c 3f 0a d7 66 40 88 84 2e 40
       1.7772183 0.6116232 3.606875 2.726839
000170 d2 a5 44 40 50 65 e1 3f 7d 44 ed 3f ab 5a 08 40
       3.0726209 1.7609043 1.8536526 2.130534
000180 c6 2f 05 40 16 49 d3 3f 9e bc a1 3f ff e7 f7 be
       2.0810409 1.6506679 1.2635686 -0.48419186
000190 fd 39 5d 40 7f af 32 40 44 5c 3c 40 dd 67 dd 3f
       3.4566643 2.7919614 2.9431314 1.7297322
0001a0 28 c6 e5 3f da 91 09 40 ea 74 0e 40 34 67 f6 3f
       1.7951097 2.149527 2.2258859 1.9250245
0001b0 c0 d3 b9 3f 1f d8 53 be 6d 8b 67 40 c8 ee 29 40
       1.4517746 -0.20687912 3.6178849 2.655199
0001c0 8c 2f 48 40 c4 34 df 3f 7a 4d ea 3f a7 93 07 40
       3.127902 1.7437978 1.8304894 2.118387
0001d0 f1 9a 02 40 73 8c cf 3f 1f 2b 7a 3f 0a 35 17 bf
       2.0407069 1.6214737 0.9772205 -0.59065306
0001e0 1e 4d 26 c0 a3 5e 16 c0 19 e9 5b 40 ac 5d 1c 40
       -2.5984569 -2.3495262 3.4361022 2.4432173
0001f0 5d 21 1d 40 d0 e7 34 40 05 d2 34 40 25 ad 27 40
       2.4551613 2.8266487 2.8253186 2.619943
000200 d3 ac 34 40 67 ce 38 40 58 51 63 40 e3 64 2d 40
       2.8230484 2.8875978 3.5518398 2.7092826
000210 04 e5 3a 40 96 f4 dc 3f 7c 6d e5 3f ee 18 07 40
       2.920228 1.7262142 1.7924037 2.1108966
000220 04 21 10 40 78 63 eb 3f 85 ac 9c 3f d6 94 0f bf
       2.252015 1.838973 1.2240149 -0.5608648
000230 5f 74 61 40 5b 79 28 40 93 bb 41 40 1c 07 dd 3f
       3.5227277 2.632407 3.0270736 1.7267795
000240 86 97 e3 3f 89 da 05 40 32 81 03 40 26 4d c8 3f
       1.7780616 2.0914633 2.0547605 1.5648544
000250 4d cc 8d 3f 43 c9 3b bf 34 6a 72 40 c6 b2 72 40
       1.1077973 -0.73353976 3.7877321 3.7921615
000260 88 07 54 40 2a 4e fe 3f 6a 12 e5 3f 8b 92 f3 3f
       3.3129597 1.9867604 1.7896245 1.9029096
000270 62 82 c5 3f 89 a9 82 3f b0 4a 11 3f 9a 9d 4b 40
       1.5430415 1.0207988 0.5675459 3.1814942
000280 bf ca 05 c0 3d ed 44 40 7d d6 3d 40 32 34 0e 40
       -2.0904996 3.0769799 2.9662163 2.2219357
000290 7f 0d 25 40 95 69 48 40 56 15 4a 40 08 cb 39 40
       2.5789487 3.1314442 3.1575522 2.903017
0002a0 d4 57 16 40 64 4b 35 bf ea f9 59 40 30 19 32 40
       2.3491106 -0.7081816 3.4058785 2.7827873
0002b0 7d 21 3c 40 fc 17 e5 3f ca 29 e9 3f bb 7d 08 40
       2.939544 1.7897944 1.8215878 2.132674
0002c0 a8 00 0b 40 5c 41 f0 3f de 62 a6 3f 18 21 b1 bd
       2.171915 1.8769946 1.2998922 -0.0864889
0002d0 9b e9 23 c0 9b 9e 0e 40 6c e3 44 40 d5 8e 16 40
       -2.5611331 2.2284305 3.0763807 2.3524678
0002e0 a1 5d 17 40 d8 d1 23 40 11 15 24 40 dc c5 24 40
       2.3650897 2.5596828 2.5637858 2.5745764
0002f0 21 bf 2f 40 2b 70 50 40 4a a4 74 40 89 cb 2c 40
       2.7460406 3.2568462 3.8225274 2.6999228
000300 77 db 45 40 1f 5c eb 3f 28 46 f1 3f e9 f1 04 40
       3.09152 1.8387488 1.8849535 2.077265
000310 8d 69 04 40 df 52 ca 3f d5 0a 94 3f 7e 76 72 be
       2.0689423 1.580654 1.1565806 -0.23678014
000320 09 c2 60 40 a4 7d 36 40 42 51 40 40 3b 4b dd 3f
       3.511843 2.8514185 3.0049596 1.7288584
000330 10 8a e5 3f e1 45 04 40 da e3 04 40 0a 3b db 3f
       1.7932758 2.066765 2.076407 1.7127392
000340 7a b9 ac 3f 57 b6 70 bd 7c 42 1f c0 65 8c 0c c0
       1.3494103 -0.058767643 -2.488433 -2.196069
000350 5a bb 65 40 8e f7 22 40 ee e7 22 40 34 c0 32 40
       3.58956 2.5463595 2.5454059 2.7929811
000360 ed d2 34 40 03 81 29 40 2e 41 31 40 08 6c 38 40
       2.825374 2.6484993 2.7696033 2.8815937
000370 62 a4 63 40 70 d7 2f 40 a2 f2 40 40 31 9d dc 3f
       3.5569081 2.7475243 3.0148091 1.7235471
000380 ed 01 f0 3f 16 51 0b 40 d3 24 17 40 94 4b f6 3f
       1.8750588 2.176824 2.3616226 1.9241815
000390 8b 25 b1 3f 48 28 7e be b4 39 62 40 42 ce 2d 40
       1.3839582 -0.24820054 3.534772 2.715714
0003a0 ad 4e 3b 40 ab ce da 3f ae e6 dd 3f a9 38 07 40
       2.926677 1.709432 1.7336023 2.1128333
0003b0 59 14 11 40 e0 a1 0a 40 c5 94 e7 3f d7 7d ad 3e
       2.266867 2.16613 1.8092276 0.3388507
0003c0 f2 71 6a 40 ac 31 36 40 e1 5d 42 40 3c be e9 3f
       3.6632047 2.8467817 3.03698 1.826118
0003d0 e2 4b e4 3f f1 30 00 40 fd 61 ff 3f 6f 88 d4 3f
       1.7835658 2.0029871 1.9951779 1.6604136
0003e0 87 c7 a4 3f f3 93 34 3e 33 45 a3 be f4 4d 07 40
       1.2873391 0.17634563 -0.31888732 2.114133
0003f0 21 5b 41 40 6a a9 1c 40 7e 69 19 40 a5 56 26 40
       3.021187 2.4478402 2.3970637 2.5990384

fc.bias f4 [10]
000000 10 df 2c 40 a1 73 05 40 90 39 0c 40 9c 80 f4 3f
       2.7011147 2.0851824 2.1910133 1.9101748
000010 b7 13 ce 3f 86 0d 7e 3f f2 14 31 3f 5a 63 07 3f
       1.6099766 0.99239385 0.69172585 0.52885973
000020 80 d6 50 3f 78 d9 26 3f
       0.815773 0.6517558

exp_avg f4 [16, 1, 3]
000000 87 ae 00 45 80 12 1d c5 3c ca 8a 44 62 5b 0e 44
       2058.908 -2513.1562 1110.3198 569.42786
000010 72 1a 93 c4 8a 5b c3 c3 f7 24 8e 43 0c 41 e3 c4
       -1176.8264 -390.71515 284.2888 -1818.0327
000020 c9 a7 43 c5 8c b5 27 44 cc 0d 11 c5 b0 e8 fa 44
       -3130.4866 670.8367 -2320.8623 2007.2715
000030 f9 9a 72 44 f1 58 de c3 88 24 94 c4 3f a7 44 c5
       970.42145 -444.69485 -1185.1416 -3146.453
000040 b5 8e 97 43 e4 cd e6 45 7e ae 15 c4 c2 ce 88 c3
       303.1149 7385.7363 -598.72644 -273.6153
000050 79 ed 78 45 87 a8 60 c4 81 41 cd 42 5e 03 cd c1
       3982.842 -898.63324 102.62794 -25.626644
000060 de 15 1c c4 ae 9d 9a 43 b2 ee b0 45 04 5c 54 c3
       -624.3417 309.23187 5661.837 -212.35944
000070 72 c5 eb c1 78 32 da 45 21 b3 7d 44 05 9d 79 44
       -29.471409 6982.3086 1014.7989 998.4534
000080 b1 a2 82 43 23 7f 8f c3 73 5d eb c2 a0 83 e8 c4
       261.27103 -286.99326 -117.68252 -1860.1133
000090 61 e1 fb c4 be 85 d2 c4 f4 ec 11 c5 30 92 ae 45
       -2015.0431 -1684.1794 -2334.8096 5586.2734
0000a0 e8 24 2c c5 f3 30 56 45 ee e1 e2 c4 64 7e 5b 43
       -2754.3066 3427.0593 -1815.0603 219.49371
0000b0 74 23 0b c4 95 30 a0 42 0a e7 3e c5 66 28 45 44
       -556.55396 80.09489 -3054.44 788.6312

exp_avg_sq f4 [16, 1, 3]
000000 7d 0d 55 4c 02 55 84 4c 32 6c de 4b 85 f5 ba 4a
       5.5850484e+07 6.938011e+07 2.915338e+07 6.1262745e+06
000010 ad 23 8b 4c ce 3a e6 49 0e eb 19 4b 7e 23 33 4e
       7.2949096e+07 1.8860418e+06 1.0087182e+07 7.513619e+08
000020 9e a1 a9 4e e9 36 d7 4d cf 45 a4 4c 60 c4 a7 4d
       1.4229706e+09 4.513375e+08 8.61262e+07 3.518331e+08
000030 32 58 cf 4b 55 c9 f9 4b 18 56 66 4c 2c e4 47 4d
       2.717706e+07 3.274001e+07 6.038128e+07 2.0960122e+08
000040 9d 50 da 49 6d 64 aa 4d cb 3a b0 4a b9 8c a6 4a
       1.7884356e+06 3.5733853e+08 5.7746935e+06 5.4575005e+06
000050 21 9a d0 4c 79 b9 26 4d 59 06 5b 49 6f 3b 8a 49
       1.0936756e+08 1.7482331e+08 897125.56 1.1323979e+06
000060 27 bd 93 4c 18 07 d4 4c 23 35 df 4c 1b 5b 3f 49
       7.745772e+07 1.1116358e+08 1.1702505e+08 783793.7
000070 5a b6 30 4d ab 84 2d 4d 75 21 96 4c 61 a8 64 4d
       1.8529629e+08 1.8194706e+08 7.871172e+07 2.3976501e+08
000080 a8 b5 c1 4a 09 cc 3c 4b 19 c5 36 4b 89 c5 3f 4b
       6.347476e+06 1.2373001e+07 1.1978009e+07 1.2567945e+07
000090 b2 7d 71 4c c5 19 34 4b b9 e3 97 4b 42 e2 a7 4c
       6.3305416e+07 1.1803077e+07 1.9908466e+07 8.801947e+07
0000a0 07 90 16 4c e8 e9 1c 4c 58 63 21 4c df 0c 03 4b
       3.9469084e+07 4.1133984e+07 4.230691e+07 8.588511e+06
0000b0 37 01 93 4c 0d 12 2b 4c be 3f 7d 4c 24 be 77 4a
       7.7072824e+07 4.4845108e+07 6.6387704e+07 4.059017e+06

exp_avg f4 [16]
000000 18 a4 bf b6 61 2e 96 b7 d1 15 c6 b7 da 59 98 35
       -5.7113466e-06 -1.790299e-05 -2.3613598e-05 1.1351033e-06
000010 7a 85 ac b5 69 01 b1 37 98 2a 66 b6 ec c6 00 b7
       -1.2853845e-06 2.11007e-05 -3.4297464e-06 -7.67571e-06
000020 15 33 10 b8 d8 81 2b b7 81 b4 8c b7 a3 5d 70 37
       -3.437985e-05 -1.0222626e-05 -1.6773354e-05 1.4326916e-05
000030 07 69 80 37 4c 2f 95 b7 0e 57 05 37 6e a4 81 b8
       1.5307696e-05 -1.7784208e-05 7.947687e-06 -6.181827e-05

exp_avg_sq f4 [16]
000000 4c 0d 10 30 4a 25 0d 31 16 70 cd 32 67 e5 bc 31
       5.240579e-10 2.0539397e-09 2.3916112e-08 5.4976e-09
000010 6f de 4d 30 b3 36 0a 32 d6 d3 88 30 c0 bf 9e 31
       7.489466e-10 8.045094e-09 9.95551e-10 4.6202047e-09
000020 e8 d2 76 31 99 99 74 31 28 44 3a 30 66 09 ab 2f
       3.5917598e-09 3.5593983e-09 6.776326e-10 3.1111397e-10
000030 f4 8b db 30 2f b1 f5 30 13 9a 72 30 ae af 85 31
       1.5974124e-09 1.7876455e-09 8.825804e-10 3.890782e-09

exp_avg f4 [16]
000000 4e 22 0a c4 c5 f8 56 44 8c 79 fa 44 32 c4 4a c4
       -552.536 859.887 2003.7983 -811.06555
000010 c3 67 8e 43 e5 5b 93 c4 8a f7 2d c5 ec 82 4a 45
       284.81064 -1178.8717 -2783.4712 3240.1826
000020 0f a9 39 c4 71 e6 94 c5 6f bf b1 c3 90 86 38 45
       -742.64154 -4764.805 -355.49557 2952.4102
000030 c0 8a 8b 45 f8 a8 cf c4 4b 62 0f c5 b8 e2 22 45
       4465.3438 -1661.2803 -2294.1433 2606.17

exp_avg_sq f4 [16]
000000 94 24 a3 4b 6e e8 24 4c 24 58 57 4b 91 ea 1e 4d
       2.1383464e+07 4.3229624e+07 1.4112804e+07 1.6663579e+08
000010 24 ab ae 4b 7c 59 c1 4a b8 56 63 4b 2b 37 30 4c
       2.2894152e+07 6.335678e+06 1.4898872e+07 4.6193836e+07
000020 69 53 de 4b a1 e4 41 4c d2 5f 7a 4b 36 b9 f7 4b
       2.914069e+07 5.0827908e+07 1.640853e+07 3.2469612e+07
000030 3d d7 9c 4b 8e 1a 89 4c d7 d7 ef 4b a6 6e 26 4c
       2.0557434e+07 7.188184e+07 3.1436718e+07 4.362921e+07

exp_avg f4 [16]
000000 9e e1 eb 44 97 4c cc 44 e2 68 40 45 7a 4f e9 c3
       1887.0505 1634.3934 3078.5552 -466.6209
000010 70 4a 85 44 94 fa c0 c4 04 d5 27 44 31 06 cc 45
       1066.3262 -1543.8306 671.32837 6528.774
000020 0a 94 52 45 90 95 1c 45 ce df 05 c4 99 75 8e c4
       3369.2524 2505.3477 -535.49695 -1139.6749
000030 90 1a f6 c4 ef d5 06 45 b4 e2 93 c3 d1 50 f8 44
       -1968.8301 2157.3708 -295.77112 1986.5255

exp_avg_sq f4 [16]
000000 3e 83 12 4b 63 9a 9e 4c 56 be d5 4b c9 b8 d9 4c
       9.601854e+06 8.315369e+07 2.8015788e+07 1.14148936e+08
000010 32 04 b0 4b 77 9b 8b 4b 09 16 56 4b 86 68 d8 4c
       2.307082e+07 1.8298606e+07 1.4030345e+07 1.1346027e+08
000020 92 ff 16 4c bc a2 a2 4b 14 7c a8 49 26 17 8e 4a
       3.9583304e+07 2.1316984e+07 1.3802265e+06 4.656019e+06
000030 0d a7 0d 4c e3 8f 0f 4b 84 64 1a 4b c1 da aa 4c
       3.7133364e+07 9.408483e+06 1.0118276e+07 8.957697e+07

exp_avg f4 [32, 16, 3]
000000 2a f2 30 c4 43 fb 47 c4 c6 ab 07 c4 0c ea ca c3
       -707.7838 -799.92596 -542.68396 -405.8285
000010 d0 a9 e4 c3 d9 af ed c3 8d a5 93 c3 c7 7b da c3
       -457.32666 -475.3738 -295.29337 -436.967
000020 d1 6e ce c3 b7 79 aa c3 d0 83 19 c4 38 d9 89 43
       -412.86575 -340.9509 -614.0596 275.69702
000030 eb 74 f1 c3 e3 5d 5c c4 c7 3c ae c2 f8 e7 c2 c3
       -482.91342 -881.467 -87.118706 -389.81226
000040 d5 43 ea c3 d9 99 f1 c3 1f 13 1b c4 08 a9 d6 c3
       -468.52994 -483.20193 -620.29877 -429.32056
000050 c0 7d 40 c4 10 43 ad c3 f0 a7 c6 c3 12 4c c2 c3
       -769.96484 -346.52393 -397.312 -388.5943
000060 ad 47 df c3 16 33 07 c4 9e 3b 8e c3 dc 39 02 c4
       -446.55997 -540.7982 -284.46576 -520.90405
000070 12 3e 76 c3 5b 46 3b c4 21 68 e9 43 76 bb b3 43
       -246.24246 -749.0993 466.8135 359.46454
000080 b9 e7 50 44 6e c9 34 c4 39 87 44 c4 be 10 14 c4
       835.62067 -723.14734 -786.11285 -592.2616
000090 2b ac c6 c3 d1 64 45 c4 58 95 05 c1 10 d6 9b 43
       -397.34506 -789.57526 -8.348961 311.67236
0000a0 b3 45 39 c3 6f 04 89 44 75 99 88 c2 99 33 01 c4
       -185.27226 1096.1385 -68.29972 -516.8062
0000b0 5c fc f4 43 00 c8 0a c4 d6 69 11 c4 e2 47 16 c4
       489.97156 -555.125 -581.6537 -601.12317
0000c0 66 c8 4e c4 fe 8f d7 c4 cd db a4 c4 a5 e8 f4 c3
       -827.1312 -1724.4998 -1318.8688 -489.81754
0000d0 74 94 e3 c3 60 ad 3e c4 d8 7a 36 c4 fa ef 36 c4
       -455.1598 -762.709 -729.91943 -731.74963
0000e0 3c e0 4b c4 29 3e c9 c3 a8 35 b7 c4 57 d3 f0 c3
       -815.50366 -402.48563 -1465.6768 -481.6511
0000f0 7d 92 84 c4 94 59 af c4 55 27 9d c3 af 77 39 c4
       -1060.5778 -1402.7993 -314.30728 -741.87006
000100 c7 82 f1 c3 92 81 69 c4 e2 af 9c c3 b5 8a 58 c4
       -483.0217 -934.02454 -313.37408 -866.1673
000110 a6 47 b6 c4 2e 3c cf c3 c3 d5 d5 c3 d6 40 2b c4
       -1458.239 -414.47015 -427.67 -685.01306
000120 ca 4a 92 c3 7a a4 a8 c4 4a 50 7f c4 ac c4 71 42
       -292.5843 -1349.1399 -1021.2545 60.442062
000130 fe d1 6b c4 62 41 b2 c4 56 90 1b 44 e3 5f 0f 43
       -943.2811 -1426.0432 622.25525 143.37456
000140 df ae c6 43 16 d7 8a c4 4e cc bf c4 e9 5e 80 c4
       397.36618 -1110.7214 -1534.3845 -1026.966
000150 09 0e 64 c4 72 f9 9e c4 82 48 71 c3 77 aa a9 42
       -912.2193 -1271.7952 -241.28323 84.83294
000160 21 5f 7f c4 d0 2c 04 44 39 ba e9 c3 6e 78 92 c4
       -1021.4864 528.7002 -467.45486 -1171.7634
000170 b0 aa a6 42 f3 ef 0f c4 e4 1b 10 c4 9d e4 7d c4
       83.333374 -575.7492 -576.4358 -1015.5721
000180 a3 51 86 c4 1a 41 85 c4 30 e9 37 c4 b6 4e e7 c3
       -1074.5511 -1066.0344 -735.64355 -462.61493
000190 58 6a 00 c4 4f 88 0d c4 d9 28 a5 c3 61 e0 f7 c3
       -513.6616 -566.1298 -330.31912 -495.75296
0001a0 95 6e 00 c4 bc f1 14 c4 c4 c9 58 c4 de 39 6a 43
       -513.72784 -595.7771 -867.1526 234.22604
0001b0 e4 27 21 c4 c2 a6 81 c4 d6 0e 36 c3 bc 46 d3 c3
       -644.6233 -1037.2112 -182.05795 -422.5526
0001c0 bb 62 05 c4 34 29 0f c4 2e 52 56 c4 91 27 13 c4
       -533.54266 -572.6438 -857.28406 -588.6182
0001d0 67 33 67 c4 75 c1 c1 c3 a5 a7 e1 c3 f4 8d e2 c3
       -924.80316 -387.51138 -451.30972 -453.109
0001e0 6e a9 3a c4 18 8b 3c c4 9a c4 da c3 7c 54 49 c4
       -746.64734 -754.17334 -437.53595 -805.32007
0001f0 d7 47 d0 c3 5a 19 65 c4 01 1e 00 44 28 da 9a 43
       -416.56125 -916.3961 512.4688 309.70435
000200 42 91 6d 44 07 7a 7d c4 65 e6 79 c4 f3 21 3c c4
       950.26965 -1013.9067 -999.5999 -752.53046
000210 6e 03 07 c4 20 55 68 c4 c7 25 c0 c2 c6 dc 65 43
       -540.0536 -929.3301 -96.073784 229.8624
000220 db b5 af c3 43 2a 93 44 b1 eb 47 c3 83 2b 27 c4
       -351.42075 1177.3207 -199.92067 -668.6799
000230 fc 63 eb 43 da 91 1a c4 ac d4 1f c4 65 3a 31 c4
       470.78113 -618.27893 -639.323 -708.9124
000240 1f 3e a3 c4 84 04 bc c4 78 1c 8a c4 6c 55 41 c4
       -1305.9413 -1504.1411 -1104.8896 -773.3347
000250 93 66 79 c4 6e c8 6b c4 14 3c 03 c4 60 e2 63 c4
       -997.6027 -943.1317 -524.9387 -911.5371
000260 9a cf 3d c4 4b 8d d0 c3 bf 27 90 c4 ca 25 22 44
       -759.2438 -417.10385 -1153.2421 648.59045
000270 23 33 68 c4 f5 49 f1 c4 b0 c9 ff c2 a5 90 45 c4
       -928.799 -1930.3112 -127.89392 -790.2601
000280 86 55 7c c4 15 b5 77 c4 e6 c1 a1 c4 43 00 52 c4
       -1009.3363 -990.8294 -1294.0593 -840.0041
000290 3b 54 ca c4 d0 b1 29 c4 e4 ee 59 c4 d6 44 4f c4
       -1618.6322 -678.7783 -871.73267 -829.07556
0002a0 3b 97 45 c4 20 b4 73 c4 e9 48 fd c3 9f 96 81 c4
       -790.363 -974.81445 -506.5696 -1036.7069
0002b0 30 c0 ac c3 a7 e5 c3 c4 fa 91 94 44 e3 7c 54 44
       -345.50146 -1567.1766 1188.5618 849.95135
0002c0 87 fa eb 44 52 8c b1 c4 c5 71 c4 c4 6c b4 9f c4
       1887.829 -1420.385 -1571.5553 -1277.6382
0002d0 be ba 3c c4 20 32 d7 c4 04 11 62 42 42 a8 74 44
       -754.91785 -1721.5664 56.516617 978.629
0002e0 0c 77 84 c3 4e 9f 1a 45 96 f4 36 42 98 8f 81 c4
       -264.93005 2473.9565 45.738853 -1036.4873
0002f0 d0 04 8e 44 7c 15 93 c4 81 48 aa c4 86 9a 96 c4
       1136.1504 -1176.6714 -1362.2657 -1204.8289
000300 ee 64 b7 43 ff 7a 0f c5 50 b8 10 c5 c1 aa 87 c4
       366.7885 -2295.6873 -2315.5195 -1085.336
000310 e0 b8 78 c4 f3 c8 75 c4 ed 7a bd c4 c0 56 27 c5
       -994.8887 -983.13983 -1515.8414 -2677.4219
000320 50 7d f9 c4 ad 01 a7 c2 18 66 17 c5 89 ee c7 c4
       -1995.916 -83.50327 -2422.3809 -1599.4542
000330 84 94 c9 c4 37 ad 27 c5 ad 7a 58 c4 3c ea a3 c4
       -1612.6411 -2682.826 -865.9168 -1311.3198
000340 cb ce c4 c4 2e 71 93 c4 32 61 4d 44 ae 22 96 c4
       -1574.4623 -1179.5369 821.5187 -1201.0837
000350 bf 45 09 c5 97 5f 4e c4 09 f7 1f c4 a9 ce 0c c4
       -2196.3591 -825.4936 -639.8599 -563.22906
000360 97 5b 00 45 30 f1 a8 c4 ee 0b f9 c4 ae 6c 01 45
       2053.7244 -1351.5371 -1992.3728 2070.7925
000370 e9 8a 10 c4 0f 56 19 c5 f9 02 99 44 cb d9 91 c4
       -578.1705 -2453.3787 1224.0929 -1166.806
000380 49 5d 5c c4 8e 2d be c4 f6 57 19 c5 5b b6 ca c4
       -881.4576 -1521.4236 -2453.4976 -1621.6986
000390 3b e1 7c c4 fb 58 09 c5 bf fd 17 c4 ea 48 46 44
       -1011.5192 -2197.5613 -607.9648 793.1393
0003a0 7f 94 3c c5 8e da a1 c4 7e cb 37 43 b3 57 f5 c4
       -3017.281 -1294.8298 183.79489 -1962.7406
0003b0 44 84 16 c4 f3 06 85 c3 1a 41 ae c3 83 ae 30 c4
       -602.06665 -266.0543 -348.5086 -706.72675
0003c0 ca 4c 93 c4 c5 8d 96 c4 c3 92 5c c4 41 be f3 c3
       -1178.3997 -1204.4303 -882.29315 -487.48636
0003d0 e3 dd 08 c4 23 57 16 c4 38 46 a8 c3 6a 6e 01 c4
       -547.467 -601.3615 -336.54858 -517.7252
0003e0 ae 87 08 c4 12 fa 29 c4 b3 f9 7f c4 44 ba 49 43
       -546.12 -679.90735 -1023.90155 201.7276
0003f0 24 3b 2f c4 f5 44 91 c4 e4 ea 64 c3 2e 7c d5 c3
       -700.9241 -1162.1549 -228.91754 -426.97015

exp_avg_sq f4 [32, 16, 3]
000000 71 1c ca 49 90 9b a6 49 2f 06 c9 49 80 ac 7f 49
       1.6556941e+06 1.36485e+06 1.6467899e+06 1.04724e+06
000010 88 9b 42 49 99 73 ef 48 1c bf 7a 49 9b 22 4b 49
       797112.5 490396.78 1.02705775e+06 832041.7
000020 0f e4 a8 48 2b 70 91 49 e0 67 ae 49 3e 41 57 4a
       345888.47 1.1914294e+06 1.428732e+06 3.5267355e+06
000030 a7 eb a6 49 98 bd 10 4a 1f b5 35 49 c1 55 91 49
       1.3674129e+06 2.37143e+06 744273.94 1.1905841e+06
000040 4c 5f 0d 49 87 5c c2 48 ff 02 97 49 bf b2 cd 49
       579060.75 398052.22 1.2370879e+06 1.6850799e+06
000050 37 79 b9 49 7d b1 18 49 bd 94 fc 48 6e 2b 9a 48
       1.5193989e+06 625431.8 517285.9 315739.44
000060 d8 92 87 49 99 6a 26 49 e2 7c 73 49 05 8c 70 49
       1.110619e+06 681641.56 997326.1 985280.3
000070 30 75 cf 49 14 99 11 4a d6 5d 88 49 e8 59 a9 49
       1.699494e+06 2.385477e+06 1.1171148e+06 1.387325e+06
000080 47 e2 66 4a 65 7c 86 49 a9 46 73 49 34 c8 71 49
       3.7828018e+06 1.1017086e+06 996458.56 990339.25
000090 fd 42 9b 49 9d 51 f2 49 a0 0c 31 49 7a e7 59 49
       1.2719036e+06 1.9850756e+06 725194.0 892535.6
0000a0 6e aa 91 49 7e eb fb 4a 5a 58 64 49 ce 30 8a 49
       1.1932938e+06 8.254911e+06 935301.6 1.1320578e+06
0000b0 c2 bf 30 4a 73 73 2f 49 33 fc 04 49 dc 4d f8 48
       2.8958565e+06 718647.2 544707.2 508526.88
0000c0 86 38 ec 4b 05 04 9e 4b 4e 5f 84 4b 86 fb 8c 49
       3.0961932e+07 2.0711434e+07 1.73503e+07 1.1549288e+06
0000d0 2e be d0 49 03 ba 3d 4a b8 ee 99 49 70 94 c8 49
       1.7100218e+06 3.1084808e+06 1.261015e+06 1.64315e+06
0000e0 41 98 a8 4a b7 fc d2 4b 3e 26 a0 4b 4a 70 42 4b
       5.5245125e+06 2.765451e+07 2.09911e+07 1.274273e+07
0000f0 63 ce 79 4a 40 ee c0 4a 9e dd 9c 4a 28 76 b1 49
       4.0928248e+06 6.321952e+06 5.140175e+06 1.453765e+06
000100 0e 03 db 49 09 47 dd 4a 4e 3f 19 4b 01 f0 90 4a
       1.7941458e+06 7.2508205e+06 1.0043214e+07 4.7493125e+06
000110 19 dc da 4a b1 42 90 49 3f d0 77 49 b0 14 fc 49
       7.1715965e+06 1.1817821e+06 1.01504394e+06 2.065046e+06
000120 d4 5a c4 4b 95 65 7a 4b 9c 09 6a 4b 14 5e 91 4b
       2.5736616e+07 1.6410005e+07 1.5337884e+07 1.9053608e+07
000130 36 91 3d 4b ab ff 42 4b 6d e7 d9 4a b3 6c e7 4a
       1.2423478e+07 1.2779435e+07 7.1402785e+06 7.5833215e+06
000140 d3 d5 11 4a c0 01 38 4b f2 ad 06 4b b8 f9 d6 4a
       2.3893648e+06 1.2059072e+07 8.826354e+06 7.044316e+06
000150 24 72 62 4a 0f 60 b0 4a 25 a0 a4 4a 17 25 93 4b
       3.710089e+06 5.7794635e+06 5.3944505e+06 1.9286574e+07
000160 ed 3b 75 4b 75 26 32 4b 8b 5b 35 4b 1b f6 20 4b
       1.6071661e+07 1.1675253e+07 1.1885451e+07 1.0548763e+07
000170 df 22 2e 4b 5d 2e d2 49 ee c6 ef 49 25 3a a4 4a
       1.1412191e+07 1.7218036e+06 1.9642538e+06 5.3813945e+06
000180 86 db 2b 4a 12 e9 25 4a 26 38 f4 49 16 ca af 49
       2.8157135e+06 2.7182765e+06 2.0006448e+06 1.4400668e+06
000190 80 e3 75 49 59 9a 35 49 c4 a5 a4 49 d5 db 98 49
       1.00716e+06 743845.56 1.3487925e+06 1.2522186e+06
0001a0 21 2e 08 49 7e db ee 49 99 3c 06 4a 17 9c 72 4a
       557794.06 1.9567198e+06 2.1993342e+06 3.9749178e+06
0001b0 5d 61 e7 49 c9 a6 af 49 76 f3 4f 49 c1 ad ce 49
       1.8954676e+06 1.4389371e+06 851767.4 1.6931121e+06
0001c0 ba 7f 5a 49 38 19 02 49 23 72 00 4a cf d3 fb 49
       894971.6 532883.5 2.1044568e+06 2.0629699e+06
0001d0 1e b9 6e 49 d5 2c 4e 49 01 da 26 49 8d 4e d1 48
       977809.9 844493.3 683424.06 428660.4
0001e0 85 b9 e3 49 e2 8f eb 49 e4 ce 8d 49 3f 31 eb 49
       1.8655206e+06 1.9297242e+06 1.1616925e+06 1.9266959e+06
0001f0 dc 85 27 4a 0e 3c 92 49 b3 86 99 49 2c 15 9f 49
       2.744695e+06 1.1979538e+06 1.2576864e+06 1.3032055e+06
000200 62 83 5f 4a 0a c3 dd 49 5f 6c c3 49 9a 0c 91 49
       3.6620405e+06 1.8166732e+06 1.6009079e+06 1.1882432e+06
000210 a2 27 d5 49 f7 d8 7d 49 84 3b 43 49 97 cc 08 4a
       1.7461642e+06 1.03975944e+06 799672.25 2.2413178e+06
000220 3c 2f b9 49 38 24 d7 4a 30 ce e4 49 22 12 2f 49
       1.5170315e+06 7.049756e+06 1.874374e+06 717090.1
000230 8f 9e 16 4a 9a 3f 82 49 b7 5b 20 49 47 fe 16 49
       2.4677478e+06 1.0669952e+06 656827.44 618468.44
000240 c2 55 bc 4a 6d cb 9a 4a 03 d3 bd 4a 69 09 48 4a
       6.171361e+06 5.0723105e+06 6.2201615e+06 3.2774022e+06
000250 1b 30 42 4a d5 03 f0 49 05 eb 26 4a 54 53 3d 4a
       3.1815748e+06 1.9662026e+06 2.7347852e+06 3.101909e+06
000260 68 9e dd 49 c1 62 97 4a 30 d3 aa 4a 15 10 58 4b
       1.815501e+06 4.9606085e+06 5.597592e+06 1.4159893e+07
000270 cc f4 c2 4a d5 a2 eb 4a 3d 15 82 4a d1 bf 49 4a
       6.388326e+06 7.7213225e+06 4.2625585e+06 3.3054602e+06
000280 63 1a 29 4a fe bc 15 4a 6f bb cf 4a 12 11 d3 4a
       2.7705848e+06 2.4533115e+06 6.8069675e+06 6.916233e+06
000290 f7 dd 75 4a 9b 5d ea 49 13 a5 06 4a 66 ec ab 49
       4.0282858e+06 1.9199234e+06 2.2060208e+06 1.4083968e+06
0002a0 f9 6c 69 4a ad 8d 42 4a 9c 90 7c 4a d4 62 a7 4a
       3.8244462e+06 3.1875632e+06 4.138023e+06 5.484906e+06
0002b0 67 b7 06 4b 2b 6c d4 4a e4 58 89 4a 60 ba d5 4a
       8.828775e+06 6.9606615e+06 4.500594e+06 7.00344e+06
0002c0 66 2e 3a 4b 53 1c 84 4a fb 23 57 4a 72 13 64 4a
       1.2201574e+07 4.3290015e+06 3.5248628e+06 3.7367965e+06
0002d0 99 b4 b1 4a 96 d4 bc 4a 12 41 82 4a b1 bc e7 4a
       5.8230525e+06 6.187595e+06 4.268169e+06 7.5935605e+06
0002e0 7f 61 b4 4a 50 ff ec 4b 6e 2b b2 4a 7c c1 35 4a
       5.9107195e+06 3.1063712e+07 5.838263e+06 2.977887e+06
0002f0 26 70 48 4b 08 21 41 4a 8a 2b 38 4a 95 b9 06 4a
       1.313591e+07 3.164226e+06 3.0174425e+06 2.2073332e+06
000300 68 e3 3f 4d 61 b1 53 4d af 6e 23 4e 54 69 ba 4b
       2.0120947e+08 2.2197608e+08 6.85485e+08 2.443332e+07
000310 91 18 01 4c d5 63 7e 4c 27 7a 94 4b 25 d8 82 4b
       3.3841732e+07 6.6686804e+07 1.9461198e+07 1.7150026e+07
000320 77 20 4f 4c 4d e3 92 4c ab 73 dd 4d a6 62 ef 4d
       5.4297052e+07 7.701156e+07 4.6441814e+08 5.0202746e+08
000330 b0 c1 22 4b 01 2c 31 4d dc c6 3c 4c 9b c3 3c 4c
       1.0666416e+07 1.8577819e+08 4.9486704e+07 4.9483372e+07
000340 42 8c 17 4c 15 c9 a4 4c 49 18 4d 4d 45 87 4f 4b
       3.972737e+07 8.639505e+07 2.1505755e+08 1.3600581e+07
000350 1e 2b 10 4d 4b 38 b0 4b 4e 70 e7 4b 8b 24 43 4c
       1.5117155e+08 2.3097494e+07 3.0335132e+07 5.11555e+07
000360 8a 64 61 4d 99 cb 43 4d ca 45 24 4e fd 76 8d 4d
       2.363414e+08 2.0530626e+08 6.890093e+08 2.9667318e+08
000370 96 29 16 4c 88 3a ee 4d 1c dc fe 4b ed a4 32 4d
       3.9364184e+07 4.9960166e+08 3.3404984e+07 1.8732206e+08
000380 03 33 e5 4c d0 b8 5f 4c fc 36 ac 4c 7c 87 6c 4d
       1.20166424e+08 5.864736e+07 9.029014e+07 2.4801888e+08
000390 ef 13 37 4b e7 9b 27 4d eb 62 67 4c e9 c7 a8 4c
       1.1998191e+07 1.7575077e+08 6.0656556e+07 8.84898e+07
0003a0 5a 5d 4d 4e 59 b6 e9 4d 19 13 18 4c cc 88 dc 4d
       8.613618e+08 4.901302e+08 3.9865444e+07 4.6249408e+08
0003b0 58 9e 86 4d 23 94 ab 4c e1 44 9d 4c 09 d3 d0 4c
       2.8231552e+08 8.995663e+07 8.245428e+07 1.09484104e+08
0003c0 23 f2 52 4a 69 fe 25 4a aa 93 12 4a 34 90 a9 49
       3.4561368e+06 2.7196422e+06 2.4015145e+06 1.3890625e+06
0003d0 9e c1 7f 49 d2 7d 46 49 a8 04 a0 49 40 67 8b 49
       1.0475779e+06 813021.1 1.310869e+06 1.141992e+06
0003e0 be 59 19 49 08 a3 fd 49 50 45 12 4a e4 8a 6e 4a
       628123.9 2.077793e+06 2.3965e+06 3.908281e+06
0003f0 e6 55 f5 49 b1 a3 01 4a bf 33 63 49 2b 54 cc 49
       2.0097888e+06 2.1240122e+06 930619.94 1.6738614e+06

exp_avg f4 [32]
000000 17 22 7b b9 ec 1d 44 ba aa e3 0d b8 df 17 78 bb
       -0.00023949925 -0.00074812653 -3.382905e-05 -0.0037856025
000010 2b 8b a5 bb 61 a9 a5 3a 45 ee e5 b9 48 e2 ac ba
       -0.0050519905 0.001263898 -0.00043855808 -0.0013189996
000020 48 e4 a3 b9 df d1 3d ba ea ef 57 ba 1f e1 b1 b9
       -0.00031259866 -0.0007241051 -0.0008237349 -0.000339278
000030 0b 41 59 3a 0e 4c 65 ba 50 7f a0 ba 58 ce 55 ba
       0.0008287585 -0.000874699 -0.0012244973 -0.0008156053
000040 95 d9 ca bb 1f 4b 1f bb df c4 da 3a 03 d2 8a b9
       -0.0061904886 -0.002430625 0.0016690752 -0.00026477882
000050 e7 9f 00 ba 9a f9 f9 39 de 0b c6 ba 6d 46 3c b8
       -0.000490664 0.0004767895 -0.0015109738 -4.4888282e-05
000060 4a e9 34 ba 54 2b a2 ba 62 d5 16 ba 6b 29 80 ba
       -0.0006901218 -0.0012372532 -0.00057538424 -0.0009777969
000070 74 17 a3 39 05 1e 37 ba 83 6b f4 bb cb 6a 8d b9
       0.00031107257 -0.0006985369 -0.0074591055 -0.00026973183

exp_avg_sq f4 [32]
000000 7c 15 8d 36 d2 d9 25 38 5a 46 0d 37 2e bf 56 38
       4.2046286e-06 3.9541927e-05 8.420635e-06 5.1199626e-05
000010 d2 63 6c 39 68 b6 17 37 2d eb 04 36 5a 57 a6 36
       0.000225439 9.042771e-06 1.9806423e-06 4.9573546e-06
000020 c3 f7 36 36 d4 8f ce 36 24 1a 1e 37 1b ec 30 37
       2.726433e-06 6.156022e-06 9.42362e-06 1.054539e-05
000030 c9 af bf 37 fe b8 51 37 08 b6 bd 36 3d 88 e8 38
       2.285083e-05 1.2500443e-05 5.65383e-06 0.000110879984
000040 39 33 c0 39 78 94 52 38 a7 00 8e 3a 36 37 c6 36
       0.00036659258 5.0206174e-05 0.0010833935 5.9072872e-06
000050 fd 16 72 36 44 73 8f 38 c6 8e 28 38 67 23 b2 36
       3.607419e-06 6.840241e-05 4.018729e-05 5.3089348e-06
000060 d5 4b 0b 37 1f 2b 5f 38 c3 b2 a9 36 02 89 6d 37
       8.302702e-06 5.3207503e-05 5.057403e-06 1.41582e-05
000070 95 87 fb 36 8b b4 b4 37 1d f1 a4 39 45 fe 84 36
       7.4961667e-06 2.1541744e-05 0.0003146016 3.9635074e-06

exp_avg f4 [32]
000000 f3 ec 0c 43 9a 0d ae 42 d5 23 2b 43 da b0 02 43
       140.92558 87.026566 171.13997 130.69083
000010 da 06 12 c2 b4 15 35 43 a8 c3 28 43 3d d4 1d 43
       -36.50669 181.08478 168.76428 157.82906
000020 84 20 28 43 bb f8 08 43 b9 30 3e 43 84 56 e9 42
       168.12701 136.9716 190.19032 116.668976
000030 b0 e5 ed 40 f9 3d 3e 43 10 79 06 43 9d b4 83 42
       7.434288 190.24208 134.4729 65.85276
000040 c4 c7 8b 43 1a 7a 47 43 ae 6a 23 c2 99 36 86 42
       279.56067 199.47696 -40.85418 67.106636
000050 44 ca 0e 43 5c 5f b6 bf 39 23 47 43 a8 27 3b 43
       142.7901 -1.4247851 199.13759 187.1549
000060 b0 ff f4 42 b0 77 d1 c2 48 7d f0 42 b3 7f 19 43
       122.49939 -104.733765 120.24469 153.49883
000070 e4 46 46 43 5c 8d 26 43 5f 84 91 43 c4 ba 92 42
       198.27692 166.55219 291.03415 73.36478

exp_avg_sq f4 [32]
000000 e6 a2 be 49 f0 9c 47 49 56 c2 c8 49 a0 f1 9c 49
       1.5616928e+06 817615.0 1.6446188e+06 1.285684e+06
000010 b7 19 94 48 98 7b cc 49 e2 a0 e3 49 77 1c c4 49
       303309.72 1.675123e+06 1.8647322e+06 1.6065429e+06
000020 d6 4d d8 49 bb 18 b6 49 73 e8 c9 49 02 1f a8 49
       1.7719628e+06 1.4917354e+06 1.6540304e+06 1.3772482e+06
000030 36 99 0c 49 f0 4b c5 49 85 96 b0 49 f2 4e 36 49
       575891.4 1.616254e+06 1.4466086e+06 746735.1
000040 27 52 57 49 06 5e c2 49 11 4f fe 48 5e 02 67 49
       881954.44 1.5922568e+06 520824.53 946213.9
000050 6a b4 c3 49 4c fe 1a 49 78 47 c7 49 67 4b c6 49
       1.6032132e+06 634852.75 1.632495e+06 1.6244289e+06
000060 fd c2 ac 49 fa d0 b7 48 c4 42 a2 49 0d 3f ba 49
       1.4152636e+06 376455.8 1.3292405e+06 1.5257296e+06
000070 f7 2e c6 49 42 02 bc 49 b2 3c 8b 49 7e 2f 92 49
       1.6235189e+06 1.5401682e+06 1.1406302e+06 1.1975518e+06

exp_avg f4 [32]
000000 49 22 e6 43 f8 1a d2 43 91 c3 e6 43 27 7d e3 43
       460.26785 420.2107 461.52786 454.97775
000010 24 3c 9d 43 34 fc e2 43 1f 90 e6 43 4a 23 ea 43
       314.46985 453.97034 461.12595 468.2757
000020 53 bf ea 43 7b 6e e5 43 49 57 e1 43 10 6c e5 43
       469.49472 458.86313 450.68192 458.84424
000030 e1 f5 76 43 dc c5 dd 43 26 93 e4 43 d1 4e c3 43
       246.96046 443.54578 457.1496 390.61575
000040 91 f1 d8 43 8b 08 df 43 30 2c 8e 43 c0 8a f2 43
       433.88724 446.06674 284.3452 485.08398
000050 18 bc e6 43 91 94 88 43 c0 96 df 43 75 35 e5 43
       461.46948 273.16068 447.17773 458.41763
000060 f3 09 e5 43 51 cd 95 43 c7 c2 e9 43 f3 7a e1 43
       458.07773 299.60403 467.5217 450.96054
000070 40 a8 e2 43 22 3d e5 43 59 19 d4 43 ff 85 e8 43
       453.31445 458.4776 424.19803 465.04684

exp_avg_sq f4 [32]
000000 70 56 55 4a 58 a7 87 4a df 90 50 4a b1 2e 76 4a
       3.495324e+06 4.4451e+06 3.4171438e+06 4.0334522e+06
000010 85 e0 4a 4a 66 59 4b 4a af fe 52 4a cd 3e 57 4a
       3.3239372e+06 3.3316735e+06 3.4569398e+06 3.5265792e+06
000020 8d d5 56 4a bd b5 5e 4a 1f 83 4b 4a ad 3f 68 4a
       3.5198432e+06 3.6488792e+06 3.3343438e+06 3.8051632e+06
000030 f3 59 1e 4a 34 84 47 4a 2b 8d 61 4a 46 20 6d 4a
       2.5944288e+06 3.268877e+06 3.6954348e+06 3.8850735e+06
000040 39 5c 99 4a 6f 35 4c 4a 24 3e 1c 4a 38 a8 87 4a
       5.0253085e+06 3.3457558e+06 2.559881e+06 4.445212e+06
000050 d1 1b 57 4a 87 93 2e 4a 27 28 48 4a bf 9b 4c 4a
       3.5243402e+06 2.8602578e+06 3.2793698e+06 3.3523038e+06
000060 83 0d 61 4a 53 3b 33 4a b0 9c 6a 4a 90 a5 56 4a
       3.6872648e+06 2.9365328e+06 3.843884e+06 3.516772e+06
000070 56 d0 4e 4a 41 59 50 4a fb 77 91 4a 03 b8 78 4a
       3.3884375e+06 3.4135842e+06 4.7667175e+06 4.0750088e+06
